state/pmaker_survival_mlp.pt (torch, 63653 bytes, 6 tensors)

net.0.weight f4 [96, 7]
00000000: 227e bc3d 129e bb3e f634 533e a908 893e
00000010: f4d3 983d 68d0 87bd 0942 9c3d 4a1a 2dbe
00000020: 1b86 313e 8e12 4a3e 0faf a73e 1cd6 b13e
00000030: 0205 adbe 5f5d a63e 7230 03be be2a 2dbd
00000040: fff5 573c e52e 81be 3c83 ab3d 6f88 e33d
00000050: 8809 bdbd d088 70be b369 a9be 55f5 8e3e
00000060: a372 193e 7f80 3f3d 0101 b6bc 7901 a23c
00000070: 96cc 773e 9d5d 873e ac8f 3a3e a8f5 913e
00000080: 9481 0f3d 1395 fabd e0bf c03e 0f51 1dbc
00000090: 9df9 edbd 016a 153c 1cce 5d3e af10 bdbe
000000a0: f445 883e ef09 4b3e cec4 7ebe d89f 5cbe
000000b0: 0b8c 13be cb96 17bd a920 e03d b8a3 873e
000000c0: 79f2 b3bd 5e78 a73d 8560 1abe f50c e53d
000000d0: c3d3 97bd 8304 83be daa1 6abe a5a0 143e
000000e0: 9141 9ebe fea7 9c3d bdf2 a43e 2332 973e
000000f0: 3fb8 4fbd d215 b4be 5bd0 653e d89c cb3d
00000100: 9688 4e3e 9228 bc3d d64a 453e 5108 4c3e
00000110: c06f a3be 6195 4dbe 8b0a 8ebc 7ded 9d3d
00000120: 4c4e cd3d 1086 7bbe 41fc 3b3e 0c6b 36be
00000130: 4419 56be f6d1 563e 793a 85bd f200 703e
00000140: afdd 11be 2ab8 6e3e a460 573e 76a0 ab3e
00000150: 7ff1 653e 8378 473d 438a 0b3e de32 1dbe
00000160: 88d4 093e f2e6 163e 15d7 043e b3ba 8f3d
00000170: 86cb ecbd 0ef6 b13e aa0a 273e 6988 f1bd
00000180: 26c4 adbe d3a8 fabc e463 963e 11e1 f2bd
00000190: 4a3a 42be e979 bfbe 0625 0b3d 95d4 6e3e
000001a0: 9d8c 1a3d 46e2 88be fcf3 0abd 1fcd bdbe
000001b0: 032a 28bd 54aa 083e e950 67be f046 b63e
000001c0: 5a1c a5be 47bd 60bd 9889 71be de85 873e
000001d0: a065 64be 128f 99bd 51db 76be 8063 883e
000001e0: b3d3 efbd 3b50 1abe 83c0 31bd c3a3 94be
000001f0: 6e79 113e c81b 853e 67ca 61be 546d a5be
00000200: c560 9c3c cce5 8bbe 1f66 303e 5195 343e
00000210: aab9 babe 52cd f73d ee79 6f3d 3e2b 48bd
00000220: af46 7f3e 04c0 38be 841f 983e 0739 783e
00000230: aec9 cb3c 1747 bbbe f6b1 aa3e 66a9 bb3e
00000240: 30da 9dbd 54ea 5b3e 14b5 c1bd 3f91 75be
00000250: 1eda 883e af1f afbe afa1 bd3e a6a3 7bbd
00000260: a3c1 c03e a23d 54be f3e9 8c3e 9b5a b7bd
00000270: 46f7 e93c 7b7f e8bd f563 b7bd 1678 ae3d
00000280: 3faf 473e 5277 74be e603 523e 0f0c 59be
00000290: 1066 443d 2aa1 ac3d 21ec 11be 82b5 d83d
000002a0: 7539 8bbe dda5 8f3d b4c6 89be 2db8 d8bc
000002b0: 7778 ed3c 357e 5cbe 5115 2cbd e6e6 9b3d
000002c0: f3ed 9c3e ed4c 20bd 50cb 813e 8b24 3dbe
000002d0: 7f20 5e3e ac00 143c 106f e7bc 3f09 193e
000002e0: 140d 72be 7c24 3ebd 3160 ba3e 52c7 ffbc
000002f0: 6b54 823e 2545 653e d922 ab3e a94b 1bbe
00000300: 83d5 1c3d 2fdb ca3c 7d9b 97be e4db 403d
00000310: 68a7 72bd 31b1 b8be 79ea b5be 0250 093e
00000320: 689c 3e3e 3692 84be 73a4 533b e921 d63d
00000330: 86e4 b1be 1bdc 4dbe 89ac b0be 2709 39be
00000340: 8799 9abe aa34 1fbc 7db7 c03d 1e5b abbe
00000350: 59dd a9be 2f80 0e3d 7e2a 933e d175 2e3e
00000360: d718 f23d 8360 823e e32d 273e 9c20 913d
00000370: fa94 38bd aee1 5d3e 60b6 0bbe baba edbd
00000380: a769 393e d223 2e3e c613 893e 449a ab3d
00000390: 3bfe 9b3e 4e16 adbe a7b1 143d c97c 0fbe
000003a0: f5e3 383e 56d6 bdbe 3ef5 e4bd 6bce ac3e
000003b0: cec2 54be 3e0a fdbd a240 97be 2f1c 773e
000003c0: 8a2c a23e d3d5 693e 22fa 893e 7fbf aa3d
000003d0: 5ce0 99be 5ee2 ef3d 8ae4 38bd 7832 aabe
000003e0: 5207 0cbe eb8c 8fbe 9020 b13e 496b acbe
000003f0: 4847 51be 7aef c23d 14e9 9bbe e027 56be
0.092037454 0.36644036 0.20625672 0.2676442 0.07462302 -0.06631547 0.07629783 -0.1690456
0.17336313 0.1973364 0.32750747 0.34733665 -0.33792883 0.32493111 -0.12811449 -0.04227709
0.013181209 -0.2523109 0.0837464 0.11110007 -0.092303336 -0.2348969 -0.33088455 0.27921548
0.14985137 0.046753403 -0.022217276 0.019776093 0.24199137 0.2643861 0.18218869 0.28507733
0.035035685 -0.12235465 0.3764639 -0.009601845 -0.116198756 0.009119512 0.21660656 -0.3692679
0.2661587 0.19828008 -0.24879763 -0.2154535 -0.14408891 -0.03700904 0.109437294 0.26492095
-0.08786482 0.08177255 -0.15075882 0.11184112 -0.07413437 -0.2558938 -0.22913304 0.14514406
-0.30909398 0.076492295 0.32216445 0.2953044 -0.05071282 -0.35172898 0.22442763 0.09942025
0.20169291 0.09187426 0.19266829 0.19925047 -0.31921196 -0.20076515 -0.017339012 0.07711313
0.100246996 -0.2456286 0.18357946 -0.17814273 -0.20908076 0.20978531 -0.065052934 0.2343786
-0.14244722 0.2331244 0.21032959 0.3352086 0.22455405 0.048698913 0.13626961 -0.15351436
0.1345998 0.14736536 0.12972672 0.07018032 -0.115622565 0.34758037 0.16312662 -0.11793596
-0.33938712 -0.03059808 0.29373085 -0.11859334 -0.18967548 -0.37397698 0.033970855 0.23323281
0.037731756 -0.26735133 -0.033924088 -0.37070557 -0.04105569 0.13346225 -0.22589459 0.35600996
-0.32248193 -0.05486801 -0.23587644 0.2646932 -0.22304392 -0.074979916 -0.241071 0.26638412
-0.117103 -0.15069668 -0.043396484 -0.2903119 0.14206478 0.25997758 -0.22049867 -0.32309973
0.019089112 -0.2732376 0.17226456 0.17635085 -0.36469775 0.120997086 0.05846589 -0.048869364
0.24929307 -0.18041998 0.29711545 0.24240504 0.024876442 -0.36577675 0.33338898 0.36652678
-0.077076316 0.21476108 -0.09458366 -0.23981188 0.2672891 -0.3420386 0.37037417 -0.061435364
0.37647733 -0.20726636 0.2752224 -0.089528285 0.028560292 -0.1135244 -0.08954612 0.08518998
0.19500445 -0.23873642 0.205093 -0.21196006 0.047948897 0.08429177 -0.14250232 0.10581495
-0.27192274 0.07014058 -0.2690941 -0.02645501 0.028988106 -0.21532519 -0.042012516 0.076124
0.3065029 -0.039135862 0.25350428 -0.18470971 0.21692084 0.009033363 -0.0282512 0.14944933
-0.23637801 -0.046421513 0.36401513 -0.031222973 0.2545503 0.22389658 0.33425024 -0.15165581
0.03828956 0.024762718 -0.29610816 0.047084704 -0.059241682 -0.36072686 -0.3553045 0.13409427
0.18614352 -0.258928 0.0032294064 0.104556866 -0.34744662 -0.20103495 -0.34506634 -0.18069898
-0.30195257 -0.009717146 0.094099976 -0.33467954 -0.33176687 0.034790214 0.28743356 0.17037131
0.11821144 0.25464258 0.16326098 0.07086298 -0.04506395 0.21668121 -0.1364379 -0.11607881
0.1810671 0.17005852 0.26772898 0.08379033 0.304674 -0.3380608 0.036302235 -0.14012446
0.18055709 -0.37077588 -0.11179589 0.33751234 -0.20777437 -0.12355469 -0.29541498 0.24131845
0.31674606 0.22835474 0.2694865 0.08337306 -0.30053985 0.11713098 -0.045139827 -0.3324163
-0.13674667 -0.280372 0.34595156 -0.33675602 -0.20437348 0.09518333 -0.30451262 -0.20913649

net.0.bias f4 [96]
00000000: 1223 5c3e 8426 bebe 4c4e 473e f387 563e
00000010: 440a a2be 1eb0 b8bd 1ee7 9abe a25a 70bd
00000020: 1bc7 64bd b511 d43d ef33 9a3e 7983 853e
00000030: 3bc0 44be f4e8 22be ab73 4ebd fa91 4cbe
00000040: c8bf 51be 0810 b63e 7dd5 313e 0ebe 06be
00000050: b375 c6bd 2abf 143b fc91 14be 894c 3a3e
00000060: b866 90bc e28b 8dbe 8d43 8b3e a645 9f3d
00000070: 3c95 03bd fa9a 40bc b7b4 5e3e 1eef 92bd
00000080: 1e28 02bd 1b5d 83bd 4dc6 b53e bfc6 873b
00000090: 2c76 b0bd 3bd5 babd a965 65bc 6dc5 223e
000000a0: 88da 103e ed30 85be e3a3 b4be 69ff 793e
000000b0: 327c 3f3d e92d dc3d a311 843e c742 1dbe
000000c0: 44a0 803c 9ba5 233e 5c8b aa3e 1e1e 203e
000000d0: 7c46 813e 944b 1dbb ef79 9cbe f13d 613e
000000e0: 4036 f03c 06a7 26be 0b02 5abe b844 383e
000000f0: c370 29be 46ee a23e 771e a5be e1da e3bd
00000100: 883c 883e 93ac 98bd c307 4bbe 7095 62be
00000110: 7238 3bbd 3709 823e 4ec7 28be cdea 783e
00000120: 7afd 8d3e cf8d 91be e0a3 753e e92d ac3e
00000130: d028 9e3e 1832 96be 7286 963e 686b aebe
00000140: 5f5a 863e e58c a13d 9d1d 923e 2203 7c3c
00000150: efe5 cbbd d83f fb3d aed8 5dbe ea67 bf3e
00000160: 89ae 223e 83d5 1c3d e6b3 cdbb 16b5 b8be
00000170: 5d16 793e 606d 973e c89b 48bd 2bc3 8dbe
0.21497753 -0.3713876 0.19463462 0.20950298 -0.31648457 -0.09017967 -0.30254453 -0.058680184
-0.055853944 0.1035494 0.30117747 0.26076868 -0.19213955 -0.15909177 -0.05040328 -0.1997756
-0.20483315 0.35559106 0.17366596 -0.13158438 -0.09690418 0.002269695 -0.14508814 0.18193258
-0.017627105 -0.27645785 0.27199975 0.07776956 -0.032124743 -0.011755699 0.21748625 -0.07174514
-0.03177654 -0.06414243 0.35502854 0.0041435654 -0.086162895 -0.09122702 -0.014001288 0.15895624
0.14145863 -0.2601389 -0.35281286 0.24413837 0.0467493 0.10750944 0.25794706 -0.15357505
0.01570142 0.15981142 0.33309448 0.15636489 0.25249088 -0.0024001347 -0.30561778 0.21996285
0.029322743 -0.16274652 -0.21289842 0.17994964 -0.16546921 0.31822413 -0.32249805 -0.11125732
0.26608682 -0.07454791 -0.1982718 -0.22127318 -0.045708127 0.25397655 -0.16482279 0.2430832
0.2773245 -0.28428504 0.23988295 0.33628777 0.30890512 -0.29335093 0.2939945 -0.3406632
0.26240823 0.078882016 0.28538218 0.015381606 -0.09955966 0.122680366 -0.21664688 0.37383968
0.15886892 0.03828956 -0.006277549 -0.36075658 0.24324937 0.29575634 -0.04897669 -0.27687964

net.3.weight f4 [96, 96]
00000000: 08fb 9a3d ccd4 333d e25f a63d c1ac 7abb
00000010: d7f8 12bd d2f0 ab3d b458 09bd b465 a53d
00000020: 5be0 53bd 5ffe 4fbd 859d 85bd b58a 873c
00000030: e057 003c 6925 1a3d 67ab cf3d 0a30 3e3d
00000040: d4d4 033d 99d2 4cba b8ea ffbc 2dd6 003c
00000050: adec 82bb e1fa 053c a17e b83c b238 5f3d
00000060: 18ba fc3c ddeb 25bd 481a c83d 0fdb 06bd
00000070: a710 b5bd fde0 393d b3bb f4bc 0adc 1ebd
00000080: c581 09bc fad6 ab3c f532 f63c 3475 bebd
00000090: 1712 d03d ddad 7fbd e94c bd3d 84d1 c33d
000000a0: d322 54b9 c04e 053d b56a 7fbd faf9 0d3d
000000b0: cb2b afbd 0c11 bf3a 992c 913d 8a98 4f3d
000000c0: e5b7 08bd e4b5 083d 0c9c 30bd 6b81 b1bd
000000d0: bd69 9cbd 1c73 85bc 103a a4bd 828e 683d
000000e0: 1772 5c3d 8650 a5bd 3a81 55bd da9c b6bd
000000f0: 71ce 8b3c b306 523d a097 a5bd f9b0 cabd
00000100: 6786 9e3d e37c 3b3c 4c01 783c e35e 913d
00000110: a53d 243c cf51 94bd fbd2 bb3d c251 86bc
00000120: ccbf c83d da27 533d 6a1a b73d 8a11 c5bd
00000130: ae39 c4bd cc1a 75bc 4943 993d 3458 183d
00000140: 1367 f0bc 7d15 75bc 22a8 c53b fc18 89bd
00000150: f516 9d3d 1dde 76bd 016b 1a3d f1ff abbd
00000160: 46ec edbc 50e2 5e3d 15ff c7bd ea05 bf3d
00000170: d2f1 9abd 751a e53c b698 9dbd 7a30 973d
00000180: 5beb bfbd f1a0 913d 4efb a43d 3c00 4cbd
00000190: 02e2 c33c 4d23 603d 971f a6bd d275 243d
000001a0: 8288 4d3d 07e0 09bc de21 2f3d c1fa bdbd
000001b0: 1018 ffbc 5f7a a03d a07f be3d 8159 ac3d
000001c0: 6475 e7bc 0dcd 2fbd e43e aabd 359b 2a3d
000001d0: 5dab 94bd ab25 903b c777 8f3d d840 d83c
000001e0: e07c a4bd bfa2 583d d5e8 35bd 927b e43c
000001f0: 4d52 823d 55ee c2bc 0ead c63d e8fe cebd
00000200: b5fc abbd 8e6a a3bd fb9c a63d 0ff4 3e3d
00000210: b3d9 a2bd 594b bd3d e786 51bd 65ff 213d
00000220: 322e d63b 46aa ad3d 15fb c53c 23b1 863d
00000230: b3b6 98bc b9f1 fb3c cb40 813d e4e6 883b
00000240: 826a fd3c 43e7 83bd ddd9 13bd a472 643c
00000250: 8d7f cbbd 49f0 a2bd fb6a af3d 925d 47bd
00000260: a12c 353d 6bd1 b23c 1b16 a63d a6df be3c
00000270: da8f 4abc f2cc 9abd 3fe8 623d 5017 85bd
00000280: 4847 b1bc 157f 233d 29c0 8d3d 7e9e 313c
00000290: 5ede b63c c19b 2b3c d5fa 8b3d 1f12 d0bc
000002a0: 2c7e a1bd 6636 8c3d 8dea c5bd 394c aabc
000002b0: 9d49 b8bd 35ab 403d 3d67 48bc 4370 263d
000002c0: 8b94 8ebd 87d7 b13d 08d8 9ebc 4b59 28bd
000002d0: 7463 b73d 1299 3ebc 9e1d 903d d727 49bd
000002e0: 4b44 293b c525 b2bd aca3 563c 982e f6bc
000002f0: 1123 a43d 8873 6e3c 0c49 81bd f4e1 863d
00000300: 555e babd d16f cf3c 2180 1a3d 8a39 113d
00000310: adfd a43c 9d40 913d 4bdc 2b3d 67a7 c1bd
00000320: 9eae 9b3d fe38 473d c600 cfbc f38b be3d
00000330: 87f3 bdbd eebd 593d 2375 c2bc 25b0 0e3d
00000340: 486b a4bd 547a b23d 5465 e23c 663f d43a
00000350: adb6 cebd e2aa cdbd 9a2a debb e763 863d
00000360: b97a 46bd 199b cc3c c6c0 d03c db7b 6cbc
00000370: d876 59bd ca2d d63b 024d 9a3d 69b6 8bbd
00000380: a898 aebc b1d2 0f3d fba7 87bd f904 45bd
00000390: 7146 d03d 5252 c83d ce08 c43d 2b55 cabc
000003a0: 77b3 843b 9af3 c73b 0f98 003d c6fd efbc
000003b0: 0795 a9bd 15aa ca3c 8c81 15bd 8e94 b83d
000003c0: e3d0 79bd 9b61 1c3d d300 193c 37b3 10bd
000003d0: adec 623d 3659 8fbd d080 4e3d 70f7 31bd
000003e0: 5d9d 573d e550 f336 b7d3 563d 686d 0b3c
000003f0: 9d87 9cba fe14 4bbc 9c5d cd3d 3df9 ffbc
0.07567412 0.04390411 0.08123757 -0.0038249942 -0.035881843 0.08395542 -0.03353186 0.08076039
-0.051727634 -0.050779697 -0.06524185 0.016545633 0.007833451 0.037633333 0.10140114 0.046432532
0.03218539 -0.0007813364 -0.031239852 0.0078635635 -0.003995499 0.00817749 0.022521319 0.05449743
0.030850455 -0.04050814 0.09770638 -0.032923754 -0.08841067 0.04538058 -0.029874658 -0.038784064
-0.008392756 0.020976532 0.030053595 -0.092996985 0.101597 -0.06242167 0.09243185 0.09561446
-0.00020230869 0.032545805 -0.062357623 0.034662224 -0.08553275 0.0014577224 0.070885845 0.050682582
-0.0333785 0.03337659 -0.043117568 -0.08667263 -0.076373555 -0.01629024 -0.08018887 0.05677653
0.053819742 -0.08071999 -0.052125193 -0.08916636 0.017066212 0.05127592 -0.08085561 -0.09897036
0.07740479 0.0114433495 0.015137028 0.07098176 0.010024463 -0.07242166 0.09171101 -0.016396407
0.09802207 0.051551677 0.08940585 -0.09622486 -0.09581314 -0.014960002 0.07483537 0.037193492
-0.029346025 -0.0149587365 0.006032006 -0.066942185 0.07670394 -0.060270417 0.037699703 -0.08398426
-0.029043328 0.054415047 -0.0976545 0.093273 -0.07565655 0.027966717 -0.07695143 0.07382293
-0.09371062 0.07110775 0.08055745 -0.04980491 0.02391148 0.054721165 -0.08111494 0.040151425
0.050179012 -0.008415229 0.042756908 -0.09276343 -0.031139404 0.078358404 0.09301686 0.08415509
-0.028254218 -0.04292016 -0.08312777 0.041651923 -0.072592475 0.0043990216 0.070052676 0.026398107
-0.080316305 0.05288958 -0.0444115 0.027890954 0.06363354 -0.023795286 0.09700976 -0.10107213
-0.083978094 -0.07979308 0.081354104 0.04661947 -0.07951679 0.09242887 -0.051154044 0.039550204
0.0065362686 0.08479743 0.024167577 0.06576755 -0.018641805 0.03075491 0.063111864 0.004177915
0.030934576 -0.06440594 -0.036096442 0.013943348 -0.09936438 -0.07955987 0.08565327 -0.04867322
0.044232015 0.021828374 0.08109685 0.023300003 -0.012363398 -0.075586215 0.05539727 -0.06498587
-0.021640435 0.039916117 0.06921417 0.01084101 0.02232283 0.010474146 0.06834952 -0.025399266
-0.078853935 0.06846313 -0.09663878 -0.020788299 -0.089984156 0.047038276 -0.012231645 0.040634405
-0.06961926 0.08683687 -0.019390121 -0.04110078 0.08954516 -0.0116331745 0.07036899 -0.04911026
0.002582806 -0.0869861 0.013100546 -0.030051515 0.08014501 0.014553912 -0.06312761 0.06586066
-0.09100024 0.025321873 0.03771985 0.035455264 0.020140493 0.07092402 0.041958135 -0.094557576
0.07601665 0.048638336 -0.025268923 0.09304037 -0.09274965 0.053159647 -0.023737496 0.034835953
-0.08028275 0.087147385 0.027636208 0.0016193211 -0.100934364 -0.10042359 -0.006779981 0.065620236
-0.04845688 0.0249763 0.025482547 -0.014433826 -0.053091854 0.00653622 0.07534219 -0.06821901
-0.021313027 0.03511304 -0.066238366 -0.048100445 0.10169686 0.09781326 0.09571992 -0.024698814
0.004049714 0.0061020376 0.031395014 -0.029295813 -0.08280378 0.024739305 -0.0365005 0.090127096
-0.060990226 0.03817902 0.009338575 -0.035327163 0.055401493 -0.069994375 0.050415814 -0.043448865
0.052640308 7.2513817e-06 0.052448 0.008509971 -0.0011942271 -0.012395142 0.1002762 -0.031246776

net.3.bias f4 [96]
00000000: cdc5 e3bc 0337 c73d 6867 a53d 4706 363a
00000010: 865e b23d 93a2 e8bc dbef 183d cce5 c7bd
00000020: 57d4 923c 0ca0 643d 2d79 813d 4d0f 67bc
00000030: dab0 50bc 154d 973d f556 82bd bde2 26bd
00000040: f2e1 a53d 6407 b93c b1c5 403d adb8 b0bc
00000050: f23f 283d 4d05 2f3c 58b3 a1bd f666 c2bd
00000060: 6821 c63d e712 263d 1b15 27bd 6825 c83c
00000070: a376 b6bd 0b41 883b 02f6 b63d 882b 5a3d
00000080: b58a be3c 0c9c 1d3d 6304 833d 64d8 9bbd
00000090: edc3 b23d 3459 c4bd e28c 823d 4124 4fbd
000000a0: 8fa4 b3bc 77d6 c6bd 8e5b 92bd f971 88bd
000000b0: f278 a8bd cd96 d0bc 1a62 cd3d 05b6 1e3d
000000c0: b8f8 cebd d7a7 f7bb 67e8 2b3c 4f77 293d
000000d0: 1139 f13b d3cb c7bc 7537 ae3d d1fc ad3d
000000e0: bdaf 80bd 7619 1d3d 3d7c 67bd acc8 a7bd
000000f0: 4350 cf3d af7a 923d 4155 743d d6f1 173d
00000100: e4fe 11bd a9b6 b4bd bc94 be3c 13cf b13c
00000110: d6d8 a9bd ceb4 753c c1ad e7bc 86ef 06bb
00000120: a6e8 90bd ca5d 383c a4e8 1f3c edb4 54bc
00000130: 43a3 5a3d d2d8 24bd 5d7d 74bc 4dff 833d
00000140: d01a ac3d 10ed 97bd 29ba 45bd e857 303d
00000150: ca85 1cbd 0930 51bd 509e bf3d 5cae 85bd
00000160: b027 b3bd 4b3e cfbc c86c 1cbd f5e1 70bc
00000170: 8a5f aebd d4a8 153c c9be 843d 96c4 633d
-0.02780428 0.097272895 0.08076364 0.00069436844 0.08709435 -0.028397834 0.03733812 -0.09760627
0.017923517 0.055816695 0.063219406 -0.014102769 -0.012737477 0.07387749 -0.06364242 -0.04074358
0.08099736 0.022586532 0.047063533 -0.021572435 0.041076608 0.010682416 -0.07895535 -0.094922945
0.096743405 0.04054537 -0.040791612 0.0244319 -0.08909347 0.0041581444 0.08933641 0.05326417
0.0232595 0.038478896 0.06397321 -0.076096326 0.08728776 -0.09587327 0.063745275 -0.050571684
-0.021929054 -0.09708875 -0.07146369 -0.066623636 -0.082261935 -0.025462532 0.10028477 0.038747806
-0.10106033 -0.00755785 0.010492421 0.041373547 0.007361539 -0.024389183 0.08506671 0.084954865
-0.062835194 0.03835436 -0.056514967 -0.08192572 0.101227306 0.07152306 0.059651617 0.037095867
-0.035643473 -0.08823902 0.023264281 0.021705186 -0.08293311 0.0149967205 -0.028281095 -0.0020589544
-0.07075624 0.01125283 0.009760056 -0.012982589 0.053378355 -0.04024584 -0.014922467 0.06445179
0.084035516 -0.07418263 -0.04827324 0.043052584 -0.03821353 -0.0510712 0.093563676 -0.06527397
-0.08747804 -0.025298258 -0.03818968 -0.01470231 -0.085143164 0.00913449 0.06481702 0.0556074

net.6.weight f4 [50, 96]
00000000: 1c40 a8bd 7379 26bb eb80 80bd b751 b6bd
00000010: 159e 7b3d f1a3 47bd 95b8 c63d 73c1 8e3d
00000020: dbd4 9e3d 2b9a b3bd 0d0b 8a3d 9f2a a1bd
00000030: 649f ddbb 555e 91bc 43e7 163d d2c6 c13d
00000040: 3eb5 223d d1a5 aabd a512 ddba e5e5 323d
00000050: 5f36 1c3a c2be 503d defe 35bd 726c 2cbd
00000060: c5e7 a9bc e686 b03d 14c8 93bd 8494 883d
00000070: 37da 863c 37bc cd3c ef42 b03d 1154 42bd
00000080: 96b9 acbd 39fc 6dbd ff9e 18ba 408a f4bc
00000090: 2239 35bd d861 95bb 224b 1f3d 3e40 9b3d
000000a0: b597 30bd fcc0 93bd 1652 81bd eeb4 f63b
000000b0: f78b 8ebd 491a 91bc 196d 853d 5524 b7bc
000000c0: 623c bd3d ed4c 6fbd 00a2 4dbd 4129 413d
000000d0: c3c1 c13a edc5 0d3d 2d6c fabc cb32 90bd
000000e0: 03bb e1bc 8067 73bc fd3f aabd 3943 68bd
000000f0: fc15 bd3d f402 c2bc 0694 c8bd ba48 a23c
00000100: 385e de3c 33f6 293d c7e5 88bd 9dbe cebd
00000110: 8a91 b43d 8fc7 c1bd fd8c 2dbd c8d3 9a3c
00000120: a2d7 ad3d d53a 623d 2958 bcbd cd84 f93c
00000130: c480 63bd 41f5 d23c 1dae 4a3b c3dd 073d
00000140: 2a19 543d 814d 713d 1748 b83d 86ca c93d
00000150: d699 2c3c b60b 0d3d 789b a3bc b6d5 0b3c
00000160: 1ad2 4f3b b661 763d e1af 80bc 344f 88bc
00000170: 8fa0 763d b5b3 313d 2f74 7bbd d4a3 a73d
00000180: 8c36 42bd b439 e83c 1f32 d83c df31 a93c
00000190: ff49 9f3d 5690 2b3d 8800 6fbd ea73 69bd
000001a0: 0be3 26bd e9a2 a63c 0896 3b3d d9a9 79bd
000001b0: eef1 43bc cd6c aa3d 28e4 77bc 050f c7bd
000001c0: 2756 97bd 4ce0 55bd 92bd 483d 3808 ad3c
000001d0: 2666 6a3d 5fa9 be3d d14e a93d a197 7fbd
000001e0: 907c 93bc ed03 05bd 3b05 80bd be94 97bc
000001f0: 4b47 7fbd cdb9 77bd 0649 9ebd eca9 7b3d
00000200: 92fa 22bc 577e 163d 5597 b63d 3def e33b
00000210: c95d 8cbd 7eb7 83bd dc6a 52bd 630e dcbb
00000220: 0bab cebc 3227 433d fb3c 803b b9d6 61bd
00000230: 53fd b2bd cc28 8a3d 237c 48bd 85d8 92bd
00000240: 1ba9 b23d 3afc c7bd 74da 76bd b468 89bd
00000250: 3870 3f3d 3234 513d 24f6 e7bc f831 ca3d
00000260: 5873 163d b6eb 00bd 0b86 f33c 2979 97bc
00000270: 3af1 5abc f251 44bd 53c2 2a3d fe38 b13c
00000280: b2fa 03bd a803 a2bd 9474 cabd 5a92 2fbd
00000290: c505 8fbd 02d3 2fbb d237 d53c 8709 a0bd
000002a0: 4dc1 9bbd cd3a 97bd 5b3e 0f3d 65e1 55bd
000002b0: 8183 86bd d8f9 bcbd a379 7ebd 62cc 073b
000002c0: 52aa c3bd b681 adbd 63bf 82bd b0c7 483b
000002d0: c9d0 b03c 6a8d bdbc b55a 97bd ebb0 cf3d
000002e0: 1e88 273a aed1 c2bd 455e ccbc 1a5a c73b
000002f0: 9306 be3d 3571 abbd 718d 21bd 7f10 c6bd
00000300: a7b4 adbd d4cc b8bd 032c 40bd 8a79 463d
00000310: 5ee5 65bd fa7c c83b bb91 09bd a9cb 3d3d
00000320: 70c7 86bc 9fa9 c23d 9ec4 183d f6d7 9e3d
00000330: 93cc f1bc 6b30 b1bd ba67 02bd 0481 053d
00000340: 65dd 8e3d 43b5 093d 3378 aa3d 6932 b5bd
00000350: 9e7c b6bc ef2a d03d ced5 533d 8ddb 9dbd
00000360: 5815 80bd 7738 d03d 12cd acbc 9157 e53c
00000370: 9bb5 29bd 7574 9a3c 341f 20bd 0d9a b13d
00000380: 8805 543d 4926 0e3d 7108 c3bd 18dc 8fbd
00000390: a27d bf3d c7c6 7c3c 9d9d 553d eb7f 983c
000003a0: 8897 393b 5115 913d e8f1 42bb 53a5 bcba
000003b0: 790e d93c 37ee ab3d 97fd babc 4433 3e3d
000003c0: 4843 9fbd 7030 773d 6bfa bc3c 7003 803d
000003d0: 8f54 993d 82c1 89bd ad9f 69bd 373b 96bd
000003e0: 68c2 4c3d 34f5 c4bd f8b8 adbd 8399 993d
000003f0: ce0f c1bd c1eb 03bd f2bf c03d a738 8a3d
-0.08215353 -0.002540198 -0.06274589 -0.089023046 0.061430056 -0.04874033 0.09703175 0.06970491
0.07755443 -0.087696396 0.06740389 -0.078694575 -0.0067633856 -0.017745176 0.036841642 0.0946175
0.039723627 -0.08332408 -0.0016866518 0.043676276 0.00059590297 0.05096317 -0.044432513 -0.04209561
-0.0207404 0.0861948 -0.07215896 0.06668952 0.016461475 0.025114162 0.086065166 -0.047443453
-0.08433835 -0.058101866 -0.0005822032 -0.029851079 -0.04424394 -0.004558783 0.03889001 0.075806126
-0.04311343 -0.07214543 -0.06314485 0.0075288927 -0.0696029 -0.017712729 0.06514949 -0.022356192
0.09240033 -0.05842297 -0.050203323 0.047158483 0.0014782477 0.034612585 -0.03056916 -0.07040938
-0.027554994 -0.014856219 -0.08312986 -0.056704734 0.09232709 -0.023683049 -0.09793858 0.01981007
0.027144536 0.04149456 -0.066844516 -0.1009495 0.08816822 -0.09461891 -0.042370785 0.018899813
0.08488394 0.055231888 -0.09196503 0.030458832 -0.055542722 0.025751712 0.0030926534 0.033170473
0.05178181 0.058911804 0.08998125 0.098530814 0.010534724 0.034434997 -0.019971594 0.008534839
0.0031710924 0.06015178 -0.015708866 -0.01663933 0.060211714 0.043384273 -0.0613901 0.081855446
-0.0474153 0.028347827 0.026391087 0.020653663 0.077777855 0.041885696 -0.058350116 -0.05699531
-0.04074387 0.020341353 0.045797378 -0.060952995 -0.011959536 0.08321533 -0.01513008 -0.097196616
-0.07389479 -0.05221586 0.049008913 0.021122083 0.057226323 0.09309649 0.08266986 -0.062400464
-0.018003732 -0.032474447 -0.06250998 -0.018503543 -0.06232385 -0.060479928 -0.07728772 0.061441347
-0.009947436 0.03674158 0.08915583 0.0069560097 -0.068538256 -0.06431483 -0.05137144 -0.006715582
-0.025228044 0.0476448 0.0039135194 -0.055136416 -0.08739724 0.06746063 -0.04894651 -0.07170204
0.087236606 -0.09764905 -0.060266927 -0.06709424 0.04673788 0.051075168 -0.028315611 0.09872812
0.036731094 -0.03147479 0.029727003 -0.01849039 -0.013363177 -0.04792971 0.04168923 0.021633621
-0.032221504 -0.079108536 -0.09885517 -0.04286418 -0.06983522 -0.0026828651 0.026027594 -0.07814317
-0.076052286 -0.07384262 0.034971576 -0.052216906 -0.06568051 -0.092273414 -0.06212772 0.0020721187
-0.095539704 -0.08472006 -0.0638416 0.00306366 0.021583932 -0.02313872 -0.07390348 0.10141166
0.00063908275 -0.095126495 -0.024947295 0.006083739 0.09278598 -0.08371202 -0.03944153 -0.09671115
-0.08481722 -0.09023443 -0.046916973 0.048455752 -0.056126945 0.006118414 -0.033586245 0.046336804
-0.016452521 0.09505009 0.037296884 0.07756035 -0.029516494 -0.08651813 -0.031837203 0.032593742
0.069758214 0.03362013 0.083237074 -0.088475056 -0.022276219 0.10164439 0.051717572 -0.077078916
-0.06254071 0.1016702 -0.021093879 0.027995856 -0.041432958 0.01885436 -0.039092258 0.08671961
0.051763088 0.03470448 -0.095230944 -0.070244014 0.093501344 0.015428252 0.052152265 0.018615684
0.002831908 0.07084144 -0.0029746238 -0.0014392532 0.026496159 0.08395045 -0.022826 0.04643561
-0.07776505 0.060348928 0.023068627 0.06250656 0.074868314 -0.06726362 -0.057037044 -0.07335513
0.049990088 -0.09617081 -0.084825456 0.07499983 -0.09426843 -0.032207254 0.09411611 0.06749087

net.6.bias f4 [50]
00000000: 41ca acbd aa27 9dbd d0e9 a8bc 5cca 53bd
00000010: 6e61 29bc 174c 5a3c f9c6 3a3d 2c28 b3bd
00000020: f2c0 58bd 8eac 22bd 409c 793d d60a b0bc
00000030: ddff 9ebd 830e 1dbd 88ac 263c 6cde c53d
00000040: 447d 613d b9a1 a33c f02c 47bc 65a5 9a3c
00000050: df38 053d c233 b2bc 009e cdbd f786 d63c
00000060: 5254 31bd 0423 b6bd 881f c0bd 9c80 72bd
00000070: cc2b b03d 655d 3dbd 86fb 43bd 66d4 8f3c
00000080: d065 893d 9fa8 71bd 12ca b9bd 8cd2 143c
00000090: 991d a73d 7b67 55bc dd57 203d 317c fdbc
000000a0: dd3b b5bc bdcc 563d 08fe dcbb bfc3 433a
000000b0: 4d13 85bb 7d34 883a 7ad2 82bd 5e26 703c
000000c0: 330a 0c3d b4ac 8a3d
-0.08437014 -0.07673581 -0.020619303 -0.051706657 -0.01033817 0.013323805 0.04559991 -0.087478966
-0.052918382 -0.039715342 0.060940027 -0.021489542 -0.07763646 -0.038343918 0.010172971 0.09661564
0.055051103 0.019974576 -0.01215671 0.018877694 0.03252494 -0.021753196 -0.10039902 0.026187403
-0.043293305 -0.088933975 -0.09381014 -0.059204683 0.086021036 -0.046231646 -0.047847293 0.017557334
0.06708872 -0.0589987 -0.09071745 0.009083401 0.08159942 -0.01302516 0.039146293 -0.030943008
-0.022123272 0.052441347 -0.00674415 0.0007467828 -0.0040611387 0.0010391619 -0.063878015 0.014657585
0.034189414 0.06771222
