state/pmaker_survival_mlp.pt (torch, 870679 bytes, 2018 tensors)

net.0.weight f4 [96, 7]
0	0xbda74fdb	-0.08169528
1	0x3d88ada1	0.06673742
2	0x3d9c29b3	0.07625141
3	0xbe74413c	-0.2385301
4	0x3d5f77e9	0.054557715
5	0x3e707cde	0.23485133
6	0xbf1e3464	-0.6179869
7	0x3e914f1c	0.28380668
8	0x3c8b6bbd	0.017019147
9	0xbeb8a341	-0.36062053
10	0x3e21166f	0.15731214
11	0x3c940f5b	0.018073728
12	0xba210c50	-0.00061434973
13	0xbef289b7	-0.47370693
14	0xbeeb7728	-0.45989347
15	0xbed68e41	-0.41905406
16	0x3d902866	0.070389554
17	0xbd722e2e	-0.05912607
18	0x3d0c6446	0.034275316
19	0xbeb54b5e	-0.35409063
20	0x3ea1aed0	0.31578684
21	0x3e39c22a	0.18140474
22	0xbea300d0	-0.31836557
23	0xbedc04e5	-0.42972484
24	0x3c4b269a	0.01239934
25	0xbd24958d	-0.040181685
26	0x3cafb8ce	0.021450426
27	0xbe03a6fc	-0.12856668
28	0xbdcbccc4	-0.09951165
29	0x3d5681a1	0.052369718
30	0xbe47428f	-0.19458984
31	0xbedb922b	-0.42884955
32	0x3d830cb0	0.06398904
33	0x3eb11a61	0.34590438
34	0xbf4dec91	-0.80439097
35	0xbeb99b16	-0.36251134
36	0x3dc75de8	0.09734708
37	0xbec8eb62	-0.39242083
38	0xbe3d13d2	-0.18464592
39	0xbe838371	-0.2568622
40	0xbe0278c3	-0.1274138
41	0xbf382295	-0.7192777
42	0xbea4bde7	-0.32176134
43	0xbe208545	-0.15675838
44	0xbee9dee7	-0.45677873
45	0xbed718c1	-0.42011073
46	0x3d16cdd2	0.03681738
47	0x3dc29909	0.095018454
48	0xbe156459	-0.14589061
49	0x3f0450d7	0.5168585
50	0xbe91956f	-0.2843432
51	0x3e41a321	0.18909885
52	0x3ecc269b	0.39873204
53	0x3d69eb9e	0.057109468
54	0xbd382e97	-0.044966307
55	0xbf510186	-0.8164295
56	0x3e9d99cc	0.307814
57	0xbdd5aec4	-0.104337245
58	0xbeb3f049	-0.3514426
59	0xbbf30339	-0.0074161557
60	0x3d04074f	0.032233533
61	0xbe3ea73e	-0.18618485
62	0xbec074dc	-0.37589157
63	0xbeb34f17	-0.35021278
64	0xbdd3f2a7	-0.10349017
65	0x3daaed55	0.08346049
66	0xbecf5aea	-0.4049905
67	0xbd55da01	-0.052209858
68	0xbd7ba073	-0.061432313
69	0xbf4c28e0	-0.7974987
70	0xbda795d6	-0.08182876
71	0x3e177369	0.14790119
72	0xbed526cf	-0.4163117
73	0xbde85d14	-0.11345878
74	0xbdb3a859	-0.08772344
75	0xbe624cf5	-0.2209967
76	0xbe85fc0a	-0.26168853
77	0x3ea10e5f	0.31456277
78	0x3ea376e7	0.31926653
79	0x3de7c0d8	0.11316079
80	0x3e233cf2	0.15941218
81	0xbde7d983	-0.11320784
82	0x3e8970b9	0.26843813
83	0xbf1f853f	-0.6231269
84	0x3d92d3f4	0.07169333
85	0xbe680d03	-0.22661214
86	0xbe176871	-0.14785935
87	0x3de6d21a	0.112705424
88	0xbd965145	-0.0733972
89	0xbe5c8562	-0.21535257
90	0xbf1f92cb	-0.62333363
91	0xbe2b3ebd	-0.16723152
92	0xbd2520d2	-0.040314503
93	0x3e0c2c7f	0.13688849
94	0xbec877b9	-0.3915384
95	0x3e5b4849	0.21414293
96	0x3c1d365c	0.00959548
97	0xbd2362af	-0.039889034
98	0x3e9831db	0.29725537
99	0xbd192955	-0.037392933
100	0xbe3144ad	-0.17311354
101	0xbea7aecc	-0.32750547
102	0xbdc2ca9e	-0.095113024
103	0x3df5a552	0.11994423
104	0x3eb9f97d	0.36323157
105	0xbe845dcc	-0.2585281
106	0xbeba7a68	-0.36421514
107	0xbc67721f	-0.01412633
108	0x3e75ea39	0.2401513
109	0xbd571946	-0.052514337
110	0x3e7de3de	0.24793956
111	0x3e57f6df	0.21090268
112	0xbed14a55	-0.40877023
113	0xbe2d2fea	-0.16912809
114	0xbe5a11d3	-0.21295862
115	0xbc12e1a5	-0.008964931
116	0xbe7466a9	-0.23867287
117	0xbe9cd02e	-0.30627578
118	0x3dec1d8e	0.115290746
119	0x3d38892e	0.0450527
120	0x3dff8497	0.124764614
121	0xbe3544e7	-0.17702065
122	0x3ec2da73	0.3805729
123	0xbdf68fe5	-0.120391645
124	0xbe710a46	-0.23539075
125	0xbf2ed039	-0.6828647
126	0x3d94fdc5	0.07274965
127	0xbdb61ac2	-0.088918224
128	0x3e691a73	0.22763996
129	0x3f021fe3	0.50829905
130	0xbc780a48	-0.01513917
131	0xbe8e19ee	-0.27754158
132	0xbeb85d7e	-0.3600883
133	0x3e95023f	0.29103276
134	0xbe7c5924	-0.2464338
135	0xbebe97dd	-0.37225237
136	0xbe073611	-0.13204218
137	0xbcf59f16	-0.029983085
138	0xbd495b8b	-0.049159568
139	0xbe8fc4c4	-0.28079808
140	0xbe12c3de	-0.1433253
141	0xbeab7a7e	-0.33491892
142	0xbe601685	-0.2188359
143	0xbeb43152	-0.35193878
144	0x3d7da64f	0.061926182
145	0x3e3ee5e7	0.18642388
146	0xbe50bb74	-0.20384008
147	0xbd3658e5	-0.04451837
148	0x3c5beb85	0.013422851
149	0xbf04831b	-0.5176255
150	0x3ccaead3	0.024770176
151	0x3d90037f	0.07031917
152	0xbc9f94ce	-0.019480135
153	0xbf6972ea	-0.9119097
154	0xbe10ce08	-0.14141095
155	0xbed0481a	-0.4068001
156	0xbeb9b631	-0.36271814
157	0xbda5dd79	-0.08098883
158	0x3d4033bc	0.046924338
159	0x3dfdc430	0.123909354
160	0x3d12e5b0	0.03586358
161	0x3e4f3df6	0.2023848
162	0x3e59b49f	0.21260308
163	0x3dfc830e	0.12329684
164	0xbe2960d3	-0.16540842
165	0xbe9813f5	-0.29702726
166	0x3db5c694	0.088757664
167	0x3e93db62	0.28878313
168	0xbe1227da	-0.14273015
169	0xbd6e0be5	-0.058116812
170	0xbec60508	-0.38675714
171	0x3e805f3a	0.25072652
172	0xbe6b76df	-0.22994564
173	0x3eb61738	0.3556459
174	0xbdadf1bf	-0.08493375
175	0x3e0cb92e	0.13742515
176	0xbeae40cd	-0.34033814
177	0xbdd50de5	-0.10403041
178	0x3d7b34b3	0.061329555
179	0xbe798561	-0.24367286
180	0x3dc9715f	0.09836077
181	0xbe4eb5b6	-0.20186505
182	0x3e165a43	0.1468287
183	0xbe43aeb4	-0.19109613
184	0x3e84e0df	0.25952813
185	0x3e626bce	0.22111437
186	0xbd2066a1	-0.039160375
187	0x3d6ad7af	0.0573346
188	0xbef0e7b0	-0.47051764
189	0x3e1b9c33	0.15196304
190	0xbe03196d	-0.12802668
191	0x3e2431f1	0.16034676
192	0xbe8c8814	-0.2744757
193	0xbe6a7d21	-0.22899295
194	0x3e69d372	0.22834566
195	0x3dbc788d	0.09202681
196	0x3d0ca94a	0.034341134
197	0xbe7311b1	-0.23737217
198	0xbe99974f	-0.29998252
199	0xbd68ee4d	-0.056867886
200	0xbdd024bd	-0.10163257
201	0x3db7c3c4	0.08972886
202	0xbd4ea370	-0.050448835
203	0x3d243035	0.040085036
204	0x3e11481e	0.14187667
205	0xbebae722	-0.36504465
206	0xbe3fe0f1	-0.18738152
207	0xbd992403	-0.07477572
208	0xbe4d624d	-0.2005703
209	0xbe04c3fd	-0.12965389
210	0xbe0f26de	-0.1397967
211	0xbed26571	-0.4109302
212	0x3d8a7b9f	0.0676186
213	0x3dc8fa4a	0.09813364
214	0xbd044edb	-0.032301765
215	0xbd29efcd	-0.041488457
216	0xbedfce2b	-0.4371198
217	0x3c8d5c80	0.017256021
218	0xbe97ba49	-0.29634312
219	0x3e7e980f	0.24862693
220	0xbeb9c40b	-0.3628238
221	0xbdd8c0f2	-0.105836764
222	0x3da3fd25	0.08007268
223	0x3c0112c7	0.007878012
224	0x3d4e637b	0.05038784
225	0xbdbe08a9	-0.092789955
226	0xbde0bab5	-0.109731115
227	0xbd591b4b	-0.053004544
228	0xbe4b5fa4	-0.19860703
229	0xbe24e99c	-0.1610474
230	0xbe8894e1	-0.26676086
231	0x3e96269c	0.29326332
232	0xbd522e79	-0.05131385
233	0xbd0cf804	-0.034416214
234	0x3d9cc708	0.0765515
235	0xbeeb5ce7	-0.45969316
236	0x3d44a2a0	0.048006654
237	0x3db0206e	0.085999355
238	0xbdfe3ee1	-0.12414337
239	0x3e604f7b	0.2190532
240	0xbee8e3bf	-0.45486256
241	0xbaf7869e	-0.0018884724
242	0xbdff87dc	-0.12477085
243	0xbcce6a1f	-0.025197087
244	0xbfae6376	-1.3624103
245	0xbee24046	-0.44189662
246	0xbe8c8f76	-0.27453202
247	0x3de11c6a	0.10991748
248	0xbe87f857	-0.26556656
249	0xbdfa92b5	-0.122350134
250	0x3e84eaff	0.25960538
251	0x3e3d1069	0.18463291
252	0xbd79c896	-0.06098231
253	0xbef7ba9e	-0.48384565
254	0x3e652b6f	0.2237985
255	0xbef375a1	-0.4755068

net.0.bias f4 [96]
0	0x3e0935d0	0.13399434
1	0x3e2170bf	0.15765665
2	0xbe516eda	-0.20452443
3	0xbd2b1281	-0.041765694
4	0xbec79dfe	-0.38987726
5	0xbe06a143	-0.13147454
6	0xbdf1cf7c	-0.11807153
7	0xbe6a6769	-0.2289101
8	0xbe26e998	-0.16300046
9	0x3daccb5d	0.08437226
10	0xbe90638c	-0.28200948
11	0xbd05eb61	-0.032695178
12	0x3e1847da	0.14871159
13	0x3daca171	0.0842923
14	0x3dccae0b	0.099941336
15	0x3df4660c	0.119335264
16	0x3e007c6b	0.12547462
17	0x3e194af7	0.14970003
18	0xbe127e69	-0.14306034
19	0x3d7fb2bd	0.062426317
20	0xbe683793	-0.2267745
21	0x3ea43773	0.32073554
22	0xbe1c79a1	-0.15280773
23	0xbe3e6988	-0.18594944
24	0xbe11b01a	-0.14227334
25	0xbdcf8b2e	-0.10133968
26	0x3e8334b4	0.25626147
27	0x3df3fb43	0.11913159
28	0x3ea5b40c	0.32363927
29	0xbea4be1e	-0.32176298
30	0xbe8a207c	-0.2697791
31	0x3d8104d6	0.062997505
32	0x3e11e103	0.14245991
33	0xbc512555	-0.012765248
34	0x3e20be2a	0.15697542
35	0x3eb242a8	0.3481648
36	0xbdc1aadb	-0.09456416
37	0x3ed4ce9e	0.41563886
38	0xbe921272	-0.28529698
39	0xbe17dd8e	-0.1483061
40	0x3d8b2d31	0.06795729
41	0xbdfcc9a4	-0.123431474
42	0xbe3fc539	-0.18727578
43	0x3e5c2c1a	0.21501198
44	0x3ce070da	0.027397562
45	0xbe550fca	-0.20806804
46	0xbd630b83	-0.0554309
47	0x3da14937	0.07875293
48	0xbde716e2	-0.112836614
49	0xbe855921	-0.26044562
50	0xbe96aa6f	-0.29426906
51	0x3e09f226	0.13471279
52	0x3e352140	0.17688465
53	0x3dada9b6	0.084796354
54	0x3eaac4d3	0.3335329
55	0xbe8d8d94	-0.27647078
56	0xba010b8e	-0.0004922681
57	0xbed5fd44	-0.4179479
58	0xbe153edc	-0.1457476
59	0xbdd73686	-0.105084464
60	0x3cfeb1c0	0.031090617
61	0x3ba070b8	0.0048962496
62	0x3d141815	0.03615578
63	0x3b7ad812	0.003827576
64	0x3e09330d	0.1339838
65	0xbea1a8b8	-0.31574035
66	0x3b40dac7	0.0029427276
67	0x3e84f09c	0.2596482
68	0xbce57592	-0.028010163
69	0xbe9c5f20	-0.30541325
70	0x3c2313ea	0.009953478
71	0x3dc90b97	0.09816664
72	0xbe470b6a	-0.19437948
73	0xbe0e73a8	-0.13911307
74	0xbec6b4df	-0.3880987
75	0x3d2aaac7	0.041666772
76	0xbe6e3bf8	-0.23265064
77	0xbe8149ce	-0.2525162
78	0xbe88c785	-0.2671472
79	0xbe6f1523	-0.23347907
80	0x3e057bf3	0.13035564
81	0xbe1bffdf	-0.15234326
82	0x3d5b03c2	0.05347038
83	0x3c3f6408	0.011681564
84	0xbee916d8	-0.4552524
85	0xbb9af0c2	-0.0047284076
86	0x3e3de391	0.18543841
87	0xbead524a	-0.33851844
88	0xbee4cde5	-0.44688335
89	0x3dba04ba	0.09082933
90	0xbe8a7774	-0.2704426
91	0xbd34c396	-0.044131838
92	0xbe918432	-0.2842117
93	0x3cdc1a3e	0.026867982
94	0x3ebbb9ba	0.36665136
95	0xbec9e8ba	-0.3943537

net.3.weight f4 [96, 96]
0	0xbd2d25c3	-0.04227234
1	0xbea1dace	-0.31612247
2	0xbdaafa77	-0.08348554
3	0x3b8d13e2	0.0043053487
4	0x3bd31dd1	0.0064427634
5	0xbec2be90	-0.38036013
6	0xbae509bf	-0.0017474218
7	0xbd98ea61	-0.07466579
8	0xbe799c3e	-0.24376008
9	0xbe7fce26	-0.24980983
10	0xbd85384d	-0.06504879
11	0x3d4e7ab2	0.05040998
12	0xbe4ec8af	-0.20193742
13	0x3d297d14	0.04137905
14	0x3db83ed9	0.08996362
15	0xbd5e7c60	-0.054317832
16	0xbc50cd1f	-0.012744217
17	0x3d67aad6	0.056559406
18	0xbdcdab23	-0.10042407
19	0x3bfa6aa9	0.0076421094
20	0x3d6351f1	0.055498067
21	0xbe2055bf	-0.1565771
22	0x3da02c55	0.07820956
23	0x3de48443	0.111580394
24	0xbdf63ef7	-0.12023728
25	0xbdc3eba1	-0.09566427
26	0x3ce24df9	0.02762507
27	0x3d1b25c8	0.037877828
28	0x3de9c0c9	0.11413724
29	0x3c4dda6e	0.012564285
30	0xbe057895	-0.1303428
31	0xbcd20d55	-0.025641123
32	0x3d71fd2c	0.059079334
33	0xbe0acd4a	-0.13554874
34	0xbd590290	-0.05298096
35	0x3e2fb019	0.1715702
36	0x3d8cb103	0.068697
37	0xbe256346	-0.16151151
38	0x3b499cf1	0.003076371
39	0xbe6bf17f	-0.23041342
40	0x3df82e1c	0.1211817
41	0xbdc72fe4	-0.09725931
42	0x3d88af7e	0.066740975
43	0xbd110c34	-0.03541203
44	0xbc175376	-0.009236207
45	0x3e421311	0.18952586
46	0xbc89bc39	-0.016813384
47	0xbd51c2b7	-0.051211085
48	0xbddc6600	-0.107616425
49	0x3d721362	0.059100516
50	0x3cc3c300	0.023896694
51	0x3d84bd38	0.06481403
52	0xbea14a24	-0.31501877
53	0xbd2a50c1	-0.04158092
54	0x3d4976fe	0.049185745
55	0x3e48519d	0.19562383
56	0xbc50e525	-0.012749945
57	0xbdbf2cd0	-0.09334719
58	0xbe8ac513	-0.2710348
59	0x3e0adca5	0.13560732
60	0x3d5a3832	0.05327625
61	0x3c0f874a	0.008760283
62	0xbe276bd0	-0.16349721
63	0xbd9872c0	-0.07443762
64	0xbe699051	-0.22808959
65	0xbdd4f364	-0.103979856
66	0xbe5c6ee5	-0.21526678
67	0x3dd81a99	0.10551948
68	0x3e022e9d	0.12713094
69	0x3d472473	0.048618745
70	0xbc53fce7	-0.012938715
71	0x3e07af9c	0.13250583
72	0xbe045b9a	-0.12925568
73	0x3ccb733e	0.024835225
74	0xbe2142a3	-0.15748076
75	0xbcd93cf3	-0.02651832
76	0xbc7353ff	-0.014851569
77	0xbe3c1b1d	-0.18369718
78	0x3d089e67	0.03335419
79	0xbe2b9002	-0.16754153
80	0xbe336259	-0.17517985
81	0xbd0958ec	-0.033532068
82	0xbe10fc87	-0.14158832
83	0x3d9d684a	0.07685907
84	0xbe268701	-0.16262437
85	0xbbe9ac7c	-0.0071311574
86	0xbd36f12e	-0.0446636
87	0xbdfe6195	-0.12420956
88	0xbe28a64b	-0.16469686
89	0x3ded2329	0.11578972
90	0x3dca2d0b	0.098718725
91	0x3d3e026a	0.04638902
92	0x3e912816	0.28350896
93	0xbd919d46	-0.07110076
94	0xbdca812a	-0.09887917
95	0xbc4c0d38	-0.0124543235
96	0xbd9f2e57	-0.077725105
97	0xbe1a7441	-0.1508341
98	0x3d5a268c	0.053259417
99	0x3dab9fee	0.083801135
100	0xbd373172	-0.04472489
101	0xbe22c311	-0.15894724
102	0xbc20cc59	-0.009814345
103	0xbc86e5f1	-0.016467066
104	0x3d80a22b	0.06280931
105	0xbe35c528	-0.1775099
106	0xbe015c6f	-0.12632917
107	0xbe5c6e8c	-0.21526545
108	0xbe52ea2f	-0.20597146
109	0xbe560780	-0.20901299
110	0x3d35d32e	0.04439085
111	0x3dbf2d97	0.093348674
112	0x3d958b3c	0.073019475
113	0xbe4f2a14	-0.20230895
114	0xbe2cbefe	-0.16869733
115	0x3ce4a53a	0.027910817
116	0x3d7e6583	0.062108528
117	0xbd3186c6	-0.04334142
118	0x3d1fbef2	0.03900046
119	0x3d6c7414	0.05772789
120	0x3e212472	0.15736559
121	0x3d951daf	0.07281052
122	0x3cf92202	0.030411724
123	0x3ddb9377	0.10721486
124	0x3d861450	0.06546843
125	0xbe58c524	-0.21168953
126	0xbd3c61ab	-0.04599158
127	0x3db506d8	0.08839196
128	0x3ceb19a5	0.028698752
129	0x3d32b03d	0.043625105
130	0xbc5c2402	-0.013436319
131	0x3df64147	0.120241694
132	0x3cb88aea	0.022527177
133	0x3dae117f	0.08499431
134	0xbd1ec8d2	-0.038765736
135	0xbe325aad	-0.17417403
136	0x3e9c5d53	0.3053995
137	0xbe40008a	-0.18750206
138	0x3d28858b	0.04114298
139	0x3d892ecd	0.0669838
140	0x3d4757ed	0.048667837
141	0xbd6585ce	-0.05603581
142	0xbdac3d9e	-0.0841019
143	0xbd0d97a2	-0.034568436
144	0xbdda67b5	-0.10664312
145	0xbd711054	-0.058853462
146	0xbc721eb0	-0.014777824
147	0x3d9b33a0	0.07578206
148	0xbdbc7cb1	-0.092034705
149	0xbc966693	-0.018359458
150	0x3e3899fe	0.18027493
151	0xbd571287	-0.052507903
152	0x3df8760d	0.121318914
153	0xbe0610be	-0.13092324
154	0xbdc501af	-0.09619462
155	0x3c1bbce0	0.0095054805
156	0x3daf74c6	0.08567195
157	0x3dc868de	0.09785627
158	0xbcdd0ac0	-0.026982665
159	0xbe3f6584	-0.18691069
160	0xbe08c2dc	-0.13355583
161	0x3b8e5450	0.004343547
162	0x3d2c11af	0.042009052
163	0x3df4d3dc	0.119544715
164	0xbdb72218	-0.0894205
165	0xbdb42157	-0.087954216
166	0x3baa5c8d	0.005199021
167	0x3dd79d4c	0.10528049
168	0xbe000078	-0.12500179
169	0x3d542f31	0.051802818
170	0xbe27bc3b	-0.16380398
171	0xbdf43eda	-0.119260505
172	0x39a8481b	0.0003209718
173	0xbd83a0f7	-0.06427186
174	0xbcfc7226	-0.030816149
175	0xbe552242	-0.2081385
176	0xbda5bfaf	-0.08093201
177	0xbd196810	-0.037452757
178	0x3dd6c445	0.10486654
179	0x3d929a2b	0.071583115
180	0xbda57db9	-0.0808062
181	0xbd760a58	-0.06006846
182	0xbdd7d558	-0.10538739
183	0xbd5c2613	-0.053747248
184	0x3d1f65dd	0.038915504
185	0x3da143eb	0.078742824
186	0xbda89a76	-0.08232586
187	0xbd73fcf6	-0.059567414
188	0x3baacc0c	0.0052123126
189	0xbd8450ef	-0.06460749
190	0x3dcd699c	0.10029909
191	0xbe241eb8	-0.16027343
192	0x3db10290	0.08643067
193	0xbd5a1015	-0.053237993
194	0x3dda1322	0.106481805
195	0xbb8458e8	-0.0040389188
196	0x3b930613	0.004486808
197	0x3df1a21f	0.117985
198	0xbc8d26df	-0.01723045
199	0xbe50c987	-0.20389377
200	0x3cce0826	0.02515037
201	0xbd6f0e2b	-0.05836312
202	0xbdc136ac	-0.09434256
203	0xbe51d505	-0.20491417
204	0xbbcef979	-0.0063163606
205	0xbe256af7	-0.16154085
206	0x3dfeaac9	0.124349184
207	0xbd382a82	-0.044962414
208	0xbc01924c	-0.007908415
209	0x3e0d5470	0.13801742
210	0xbee6f459	-0.45108297
211	0x3c14c26d	0.009079558
212	0x3d3c9abc	0.046046004
213	0x3d95f3e0	0.07321906
214	0x3dc4733c	0.09592292
215	0x3e00878d	0.12551709
216	0xbc457d93	-0.012053865
217	0x3c9bae21	0.01900393
218	0xbce50b32	-0.02795944
219	0xbdc821b1	-0.09772051
220	0x3daa2c71	0.08309258
221	0xbd8a2e60	-0.067471266
222	0xbb635753	-0.00346895
223	0xbe0172d3	-0.12641458
224	0x3e552d02	0.2081795
225	0x3db7f165	0.08981589
226	0xbe3e7568	-0.18599474
227	0xbe124bfa	-0.14286795
228	0xbc14202e	-0.009040875
229	0xbdc86e68	-0.09786683
230	0x3bdbf315	0.0067123272
231	0xbe214ea8	-0.15752661
232	0x3dd6310c	0.10458574
233	0x3deb20d9	0.114808746
234	0x3daa1248	0.08304268
235	0x3e503f6f	0.20336698
236	0x3da129c0	0.07869291
237	0xbe25be82	-0.16185954
238	0x3da0d722	0.07853533
239	0x3e115dfc	0.14196008
240	0x3e028f4e	0.12749979
241	0x3bffdb11	0.007808097
242	0x3cd0475e	0.025424656
243	0xbd535b25	-0.051600594
244	0xbe258c09	-0.161667
245	0x3daa2906	0.08308606
246	0xbdc33851	-0.09532226
247	0x3b9724c8	0.004612539
248	0x3e3b1727	0.1827055
249	0xbd147088	-0.03624013
250	0x3c7719c5	0.0150818275
251	0x3d493fd3	0.049133133
252	0x3e53f655	0.20699437
253	0xbc991ba9	-0.018689947
254	0x3e0402c2	0.12891677
255	0xbe959e6c	-0.2922243

net.3.bias f4 [96]
0	0xbdecd2c4	-0.11563638
1	0xbe1c5883	-0.1526814
2	0xbd8092ae	-0.06277977
3	0xbda9816f	-0.082766406
4	0xbd50e695	-0.05100115
5	0xbdec1df4	-0.115291506
6	0x3c44a6c0	0.012002647
7	0xbe29f058	-0.1659559
8	0x3c0b9217	0.008518717
9	0xbdbfcfd8	-0.09365815
10	0x3dcca816	0.09992997
11	0xbd13a8c2	-0.036049612
12	0xbd8e7c2f	-0.0695728
13	0xbe46c86b	-0.19412391
14	0xbe203c77	-0.15648066
15	0xbe30d219	-0.17267646
16	0x3d9269a7	0.07149058
17	0xbdbe8d97	-0.0930435
18	0x3d677a7b	0.05651329
19	0xbe0ef6bf	-0.13961314
20	0xbdcccdec	-0.10000214
21	0xbdf37d40	-0.11889124
22	0x3dd0b41e	0.101906046
23	0xbd82a859	-0.06379766
24	0xbcff97ee	-0.031200375
25	0xbcdb1c39	-0.026746856
26	0xbdb8cc30	-0.09023321
27	0x3d1e00a6	0.038574837
28	0xbd623d5d	-0.0552343
29	0x3c62b147	0.0138362115
30	0xbd947888	-0.07249552
31	0xbe128164	-0.14307171
32	0xbe289abf	-0.16465281
33	0xbdfb760e	-0.122783765
34	0xbdb3430d	-0.08753023
35	0xbd87357f	-0.066020004
36	0xbe93a5a7	-0.2883732
37	0xbd84a26d	-0.06476293
38	0x3d8696d9	0.06571741
39	0xbdfef88c	-0.1244975
40	0xbe25e803	-0.16201787
41	0x3d3354d0	0.043782055
42	0xbde66e6d	-0.11251531
43	0xbd830f3c	-0.0639939
44	0xbe2ace1d	-0.16680188
45	0xbe17c39a	-0.1482071
46	0xbdadd696	-0.08488195
47	0xbe5c2d5f	-0.21501683
48	0x3e107186	0.14105806
49	0xbd6cf403	-0.057849895
50	0xbeb7396f	-0.35786006
51	0xbd85853a	-0.065195516
52	0xbd078b87	-0.033092048
53	0xbe6021de	-0.2188792
54	0x3d014523	0.031560075
55	0x3d16d554	0.03682454
56	0xbdb809bd	-0.089862324
57	0xbe5e4a95	-0.21708138
58	0x3a84981c	0.0010116133
59	0xbb19e3a3	-0.002348163
60	0xbdf66ffb	-0.12033077
61	0xbd8e07fb	-0.06935116
62	0xbce21aad	-0.02760061
63	0xbe2113f8	-0.15730274
64	0x3cc71f7e	0.024307009
65	0x3cf45eb0	0.029830307
66	0xbe0350c7	-0.12823783
67	0xbdcf3d60	-0.10119128
68	0xbd80e6a7	-0.062939934
69	0xbda255f2	-0.07926549
70	0xbdc64523	-0.096811555
71	0xbd97d9f5	-0.07414619
72	0xbdf93df3	-0.12170019
73	0x3ccb60cc	0.02482643
74	0xbe28460a	-0.16432968
75	0xbe29c3d8	-0.16578615
76	0x3d25a724	0.0404426
77	0xbda9742f	-0.082741134
78	0x3d848cf7	0.064721994
79	0xbd8b7810	-0.068100095
80	0xbdef7d59	-0.1169383
81	0xbd184592	-0.037175722
82	0xbe2b5f7c	-0.16735643
83	0xbda96dc5	-0.0827289
84	0xbe0a4cd0	-0.13505864
85	0x3cc31182	0.02381206
86	0xbe146661	-0.1449218
87	0x3d4b31ac	0.049607918
88	0xbda47df8	-0.08031839
89	0xbdf08915	-0.11744896
90	0xbddf512f	-0.109041564
91	0x3cf4365a	0.029811073
92	0xbd354619	-0.044256303
93	0xbe4be9d5	-0.19913419
94	0xbe1a4c60	-0.15068197
95	0xbdc6bac5	-0.09703592

net.6.weight f4 [50, 96]
0	0xbf089cc1	-0.5336419
1	0xbfdd7b1b	-1.7303194
2	0xc0c65b6c	-6.19866
3	0xbf42ed1e	-0.7614306
4	0x3c092ec7	0.008372969
5	0xbaad09c2	-0.0013201761
6	0xbfbd7d95	-1.480395
7	0xbfd4ed1c	-1.663486
8	0x3da94bc6	0.08266406
9	0xc0ebf0ff	-7.3731685
10	0xc118a6d4	-9.5407295
11	0xc0a4e015	-5.152354
12	0xc0838b8c	-4.1107845
13	0xc08b291b	-4.3487678
14	0xbd7dd740	-0.061972857
15	0xbf120f3a	-0.57054484
16	0xc05d3616	-3.4564261
17	0xbfa39964	-1.2781186
18	0xbdbd4b15	-0.092428364
19	0xbd530827	-0.051521447
20	0xbf9edf4f	-1.2411898
21	0xc017b15a	-2.3701997
22	0xc0a91977	-5.2843585
23	0xbe80abfe	-0.2513122
24	0xbf27b43e	-0.655094
25	0xc09e0384	-4.937929
26	0xbfc94be9	-1.5726291
27	0xc01d8930	-2.4614983
28	0xc028ad7e	-2.6355891
29	0xbf81b36d	-1.0132881
30	0xbf41af70	-0.7565832
31	0xbfbef78d	-1.4919297
32	0xbffe6e80	-1.9877472
33	0xc00d7f85	-2.2109082
34	0xc0ee2ec1	-7.4432073
35	0xbfebf387	-1.8433694
36	0xc0df184d	-6.9717164
37	0xc0ffd6e9	-7.994984
38	0xc032a938	-2.7915783
39	0xbe9de9cd	-0.30842438
40	0xbe42e395	-0.19032128
41	0xc025a58e	-2.5882297
42	0xc0a04e5c	-5.0095654
43	0xc0d00ef1	-6.501824
44	0xc0cef6d4	-6.4676304
45	0x3d8b81bb	0.068118535
46	0xbb1ebae6	-0.0024220287
47	0xc0088673	-2.1332061
48	0xc115c1c5	-9.359807
49	0xc0260f65	-2.5946896
50	0xbf44b914	-0.76844907
51	0xc061f8b9	-3.5308058
52	0xc037094b	-2.8599422
53	0xbd5b0deb	-0.05348007
54	0xc0855071	-4.1660695
55	0xc0d26afe	-6.5755606
56	0xc0cda501	-6.426392
57	0xc09d4c01	-4.915528
58	0xbde5a481	-0.11213017
59	0xc0ac8388	-5.391056
60	0xc032d138	-2.7940197
61	0xc0545be8	-3.3181095
62	0xbf46ddba	-0.7768208
63	0x3d8554eb	0.065103374
64	0xbef8fb77	-0.48629352
65	0xbf1f9bb3	-0.62346953
66	0x3d519d9e	0.051175706
67	0xbe4f1f6b	-0.20226829
68	0xbc304c2b	-0.010760347
69	0xbd9b40c5	-0.07580713
70	0xc0f0dd0c	-7.5269833
71	0xbf32d473	-0.6985542
72	0xbd8ea51f	-0.06965088
73	0xbf845eb5	-1.0341402
74	0xbf55ce9e	-0.835184
75	0xbfd06ada	-1.6282609
76	0xc0c5d770	-6.1825485
77	0xbecdc2f0	-0.40187788
78	0xc09bd233	-4.869409
79	0xbf2c3046	-0.6726116
80	0xbdbe381f	-0.09288048
81	0xbd767db2	-0.060178466
82	0xc05b52c0	-3.4269257
83	0xc0664122	-3.5977254
84	0xbcc94268	-0.024567798
85	0xc03ca0a7	-2.9473054
86	0xc0db6ea8	-6.857258
87	0xc10bcf79	-8.7381525
88	0xc0bbec2b	-5.872579
89	0xbef91793	-0.48650798
90	0xbefd12c9	-0.49428394
91	0xc0ac692c	-5.3878384
92	0xc0ff27e4	-7.9736195
93	0xbf21c255	-0.6318715
94	0xbf6b5630	-0.91928387
95	0x3dc2bcf1	0.09508694
96	0xbef608c3	-0.4805356
97	0xbfdb5d3b	-1.7137827
98	0xc0c77918	-6.233532
99	0xbf328a0a	-0.6974188
100	0x3d4ff3d9	0.05076966
101	0xbd10ad95	-0.03532179
102	0xbfc4283e	-1.5324781
103	0xbfd2dfdb	-1.6474565
104	0xbd9e94ab	-0.077432
105	0xc0f0fff1	-7.531243
106	0xc11cc236	-9.797415
107	0xc0a7e3e9	-5.246571
108	0xc0831955	-4.0968423
109	0xc0918204	-4.547121
110	0x3c38c5bb	0.011277611
111	0xbee1a7dd	-0.44073382
112	0xc067e802	-3.6235356
113	0xbfa28de8	-1.2699556
114	0xbe25e239	-0.16199578
115	0xbdc11c5f	-0.094292395
116	0xbfac56f3	-1.3464035
117	0xc018dd9c	-2.388526
118	0xc0af4aec	-5.4778957
119	0xbec855da	-0.39128
120	0xbf3f2289	-0.7466207
121	0xc0a68ba7	-5.2045474
122	0xbfd7de74	-1.6864762
123	0xc01dec35	-2.467542
124	0xc024f9df	-2.577751
125	0xbf838b69	-1.027692
126	0xbf61727a	-0.880653
127	0xbfc52ed3	-1.5404915
128	0xc00d8892	-2.2114606
129	0xc00bb396	-2.182836
130	0xc0efddef	-7.4958415
131	0xbffdb721	-1.9821512
132	0xc0e5d0b0	-7.1817245
133	0xc1045dce	-8.272902
134	0xc0467235	-3.1007206
135	0xbe9a6d7d	-0.30161658
136	0xbd2d6d5c	-0.04234062
137	0xc028a8bd	-2.635299
138	0xc0a09c5e	-5.019088
139	0xc0d372a9	-6.6077466
140	0xc0d344cf	-6.6021495
141	0x3d1f6854	0.038917854
142	0xbd5cbce1	-0.053891066
143	0xc0092fb5	-2.1435368
144	0xc11a61b4	-9.648853
145	0xc0217c77	-2.5232217
146	0xbf2452da	-0.6418892
147	0xc063bcaf	-3.5583913
148	0xc03ca1c7	-2.947374
149	0xbd7b1f51	-0.061309163
150	0xc087a248	-4.2385597
151	0xc0d6a295	-6.7073464
152	0xc0ceb298	-6.459301
153	0xc0a30d1e	-5.095351
154	0xbdffe556	-0.12494914
155	0xc0b01c7b	-5.5034766
156	0xc038cc78	-2.8874798
157	0xc05d8f56	-3.4618735
158	0xbf4bfc9c	-0.79682326
159	0x3d9d45ee	0.07679354
160	0xbef13935	-0.47113958
161	0xbf0107ae	-0.50402343
162	0xbd757c2c	-0.059932873
163	0xbe4574a2	-0.19282773
164	0x3d6f2642	0.058386095
165	0xbe3de625	-0.18544824
166	0xc0fc72e9	-7.889027
167	0xbf3b2bc4	-0.73113656
168	0x3d2b5fa4	0.041839257
169	0xbf80c6c7	-1.0060662
170	0xbf796ad7	-0.9742865
171	0xbfc3089a	-1.5237
172	0xc0cfe2d1	-6.4964375
173	0xbf0eb7a1	-0.55748945
174	0xc0a1261c	-5.035902
175	0xbf3b583a	-0.731815
176	0xbdf43e58	-0.119259536
177	0x3d538f12	0.051650114
178	0xc05e2018	-3.4707088
179	0xc06ffd95	-3.7498524
180	0xbce46485	-0.027879963
181	0xc040d4ae	-3.012981
182	0xc0db2dfe	-6.8493643
183	0xc110e7d6	-9.056601
184	0xc0c25599	-6.072949
185	0xbf0cff4d	-0.5507706
186	0xbedcbbc0	-0.43111992
187	0xc0abf75c	-5.373945
188	0xc101c8f0	-8.111557
189	0xbf271e55	-0.6528066
190	0xbf84cd7e	-1.0375211
191	0xbd847f7e	-0.0646963
192	0xbeee9c24	-0.466035
193	0xbfda3d67	-1.7049989
194	0xc0ca523c	-6.3225384
195	0xbf32ff1a	-0.69920504
196	0xbc103393	-0.008801359
197	0xbb6708a4	-0.0035252953
198	0xbfc3e0a9	-1.5302936
199	0xbfdd4559	-1.7286788
200	0x3d8754de	0.06607984
201	0xc0ef57a3	-7.479448
202	0xc11b3588	-9.700569
203	0xc0ac18c3	-5.3780227
204	0xc0825326	-4.07265
205	0xc092a3b1	-4.582482
206	0x39f8f0e3	0.0004748172
207	0xbf0d62d6	-0.55228937
208	0xc0687575	-3.632169
209	0xbf937485	-1.1519934
210	0xbe55c7c7	-0.2087699
211	0xbc5a1805	-0.013311391
212	0xbfabb12f	-1.3413447
213	0xc018660f	-2.3812292
214	0xc0a9921c	-5.2990856
215	0xbe818d47	-0.253031
216	0xbf28d2fd	-0.6594694
217	0xc0a194f2	-5.049432
218	0xbfd7b0a3	-1.685078
219	0xc0270835	-2.609876
220	0xc022a3ef	-2.5412557
221	0xbf8733a0	-1.056263
222	0xbf682226	-0.90677106
223	0xbfc59d3b	-1.5438608
224	0xc009d771	-2.1537745
225	0xc00ffad5	-2.2496846
226	0xc0f1ecf0	-7.560173
227	0xbfffb5f7	-1.9977406
228	0xc0e19947	-7.0499606
229	0xc100ce2f	-8.050338
230	0xc039d977	-2.903898
231	0xbe7d1897	-0.24716412
232	0xbe08c28f	-0.13355468
233	0xc027765a	-2.6165986
234	0xc0a3531d	-5.1038957
235	0xc0d3835b	-6.6097846
236	0xc0d45fd9	-6.6367
237	0xbae1fd93	-0.0017241709
238	0x3d32ebb7	0.043681826
239	0xc0039bda	-2.0563874
240	0xc11a2b7c	-9.635616
241	0xc02780c1	-2.6172335
242	0xbf592c54	-0.84833264
243	0xc063cce5	-3.5593808
244	0xc03ac196	-2.9180655
245	0xbdd499a0	-0.10380864
246	0xc08776ed	-4.2332673
247	0xc0d33ee0	-6.601425
248	0xc0d1fea8	-6.562336
249	0xc0a0e3a9	-5.0277905
250	0xbe82688c	-0.25470388
251	0xc0af4e13	-5.4782805
252	0xc0337996	-2.804296
253	0xc05d8bc8	-3.4616566
254	0xbf3fed92	-0.7497188
255	0xbda972b6	-0.082738325

net.6.bias f4 [50]
0	0xc1940f48	-18.507462
1	0xc1937b15	-18.435099
2	0xc1937380	-18.431396
3	0xc193e026	-18.484447
4	0xc193a035	-18.453226
5	0xc19418c5	-18.512094
6	0xc193e517	-18.48686
7	0xc193944a	-18.447407
8	0xc193a07f	-18.453367
9	0xc193ad83	-18.459723
10	0xc1936343	-18.423468
11	0xc193d68b	-18.479757
12	0xc193d815	-18.480509
13	0xc193501c	-18.414116
14	0xc193d0a7	-18.476881
15	0xc193bd89	-18.467546
16	0xc193be94	-18.468056
17	0xc1939858	-18.449387
18	0xc1939667	-18.448439
19	0xc19303b6	-18.376812
20	0xc193821a	-18.438526
21	0xc1921178	-18.25853
22	0xc1922e65	-18.272654
23	0xc1922259	-18.266771
24	0xc191d0d3	-18.226965
25	0xc191cec8	-18.225967
26	0xc1921756	-18.261395
27	0xc1927b7e	-18.310299
28	0xc192f22f	-18.368254
29	0xbbe71cad	-0.007052979
30	0x3d255bd6	0.040370785
31	0xbd88c568	-0.06678277
32	0x3d980f84	0.07424834
33	0x3bea0a29	0.0071423245
34	0x3d90dde9	0.07073576
35	0x3bf8d5af	0.0075938324
36	0x3d7de1bb	0.06198285
37	0x3d9d52f7	0.0768184
38	0x3d03099e	0.031991594
39	0xbc9e9463	-0.019357866
40	0xbdbb0253	-0.09131303
41	0x3d801c5e	0.062554106
42	0x3d876921	0.066118486
43	0xbdc7ce0b	-0.097560965
44	0xbd4ded37	-0.050275054
45	0xbd9341af	-0.071902625
46	0xbd836638	-0.06415981
47	0xbd963f65	-0.0733631
48	0x39ed8bcc	0.0004530832
49	0x3d1c9909	0.038231883

exp_avg f4 [96, 7]
0	0x36e1dc34	6.7311576e-06
1	0x3b61b20a	0.0034438395
2	0x3a4b3d70	0.00077529904
3	0x3a764283	0.00093940663
4	0x3c8b2be8	0.01698871
5	0x00000000	0.0
6	0x36a3e87a	4.8848424e-06
7	0xb72e9860	-1.0406686e-05
8	0xbb9c07f6	-0.004761691
9	0xb9318414	-0.00016929238
10	0xbb26705e	-0.0025396566
11	0xbcac5b8b	-0.021039745
12	0x00000000	0.0
13	0xb70084e5	-7.660336e-06
14	0x02148818	1.091238e-37
15	0x021dc084	1.1589788e-37
16	0x021828d3	1.1178912e-37
17	0x02193f94	1.1258911e-37
18	0x021f506e	1.1704557e-37
19	0x00000000	0.0
20	0x021b4577	1.1407537e-37
21	0x82149be6	-1.0918063e-37
22	0x8219f0d1	-1.1309776e-37
23	0x82108515	-1.0617642e-37
24	0x82181b6d	-1.1175067e-37
25	0x821a4f28	-1.133685e-37
26	0x00000000	0.0
27	0x021b5a2c	1.141348e-37
28	0x02193e98	1.1258628e-37
29	0x021d199e	1.154189e-37
30	0x02151461	1.095264e-37
31	0x021e1af6	1.1615744e-37
32	0x021fc5d6	1.1738251e-37
33	0x00000000	0.0
34	0x8218409f	-1.1185742e-37
35	0x02103d02	1.0596958e-37
36	0x021774ed	1.1127284e-37
37	0x821c122b	-1.1466284e-37
38	0x021d2002	1.1543724e-37
39	0x02173499	1.1108823e-37
40	0x00000000	0.0
41	0x8216c882	-1.1077802e-37
42	0x021d3c22	1.1551796e-37
43	0x02141154	1.0878296e-37
44	0x0210af48	1.0629752e-37
45	0x821fccf0	-1.1740289e-37
46	0x02183e13	1.1185011e-37
47	0x00000000	0.0
48	0x0213eebe	1.086837e-37
49	0x3311751d	3.3866957e-08
50	0xbab77210	-0.0013995785
51	0x391bb3b5	0.00014848898
52	0xbb3cb2ae	-0.0028793025
53	0xbb143d03	-0.0022619374
54	0x00000000	0.0
55	0xb5319271	-6.615074e-07
56	0x0219e662	1.1306781e-37
57	0x021b83bf	1.1425411e-37
58	0x0216c022	1.1075399e-37
59	0x02105273	1.0603111e-37
60	0x021983e4	1.1278515e-37
61	0x00000000	0.0
62	0x8210cb80	-1.0637851e-37
63	0x0218faef	1.1239211e-37
64	0x021ee974	1.1675004e-37
65	0x02195926	1.1266249e-37
66	0x021323e2	1.0810152e-37
67	0x021d8972	1.1573983e-37
68	0x00000000	0.0
69	0x821febfb	-1.1749198e-37
70	0x021fa4ce	1.1728772e-37
71	0x0218d589	1.1228478e-37
72	0x82174222	-1.1112707e-37
73	0x8213c6ea	-1.085694e-37
74	0x021e2c50	1.1620724e-37
75	0x00000000	0.0
76	0x821632ef	-1.1034877e-37
77	0x34eefd3c	4.4515207e-07
78	0x3ac51014	0.0015034699
79	0x39e2dfaf	0.00043272736
80	0x3b0409d6	0.0020147464
81	0x3b8dfeed	0.004333368
82	0x00000000	0.0
83	0x3499f4b0	2.8676504e-07
84	0xb24d4cdd	-1.1950047e-08
85	0xb787ae2e	-1.6174363e-05
86	0x3094b7fc	1.0820709e-09
87	0xb813095e	-3.5056255e-05
88	0xb6f4309c	-7.2774255e-06
89	0x00000000	0.0
90	0x31cd4cdf	5.9750245e-09
91	0x36acb4b6	5.147037e-06
92	0x3befe71d	0.007321252
93	0x3ade8b5a	0.0016978786
94	0x3c170253	0.009216863
95	0x3cc5d412	0.024148975
96	0x00000000	0.0
97	0x36783de2	3.69909e-06
98	0x23dfdd17	2.4271344e-17
99	0x2b4551da	7.010205e-13
100	0x8215646e	-1.0975613e-37
101	0x293e3676	4.2235712e-14
102	0x2add8e8c	3.9356398e-13
103	0x00000000	0.0
104	0xa35fdd17	-1.2135672e-17
105	0x32ceab8d	2.4059569e-08
106	0x37c2afe4	2.3208508e-05
107	0x3647ab42	2.9752996e-06
108	0x3849bb3d	4.8096514e-05
109	0x38be759f	9.081815e-05
110	0x00000000	0.0
111	0xb25c614a	-1.2827806e-08
112	0x021faa72	1.173039e-37
113	0x0213e8cd	1.0866665e-37
114	0x02195da4	1.1267538e-37
115	0x021e3303	1.1622646e-37
116	0x02138049	1.083667e-37
117	0x00000000	0.0
118	0x8216383d	-1.1036399e-37
119	0x33d5dab7	9.9583694e-08
120	0xbb38a5a6	-0.0028174906
121	0xb9d54105	-0.0004067497
122	0xbbaa9ea9	-0.005206902
123	0xbbcd4056	-0.006263773
124	0x00000000	0.0
125	0xb54893b3	-7.4720737e-07
126	0x35af5ddf	1.3065836e-06
127	0xbb016996	-0.0019746772
128	0x39415664	0.00018438097
129	0xbba22bef	-0.004949085
130	0xbb8c362d	-0.004278919
131	0x00000000	0.0
132	0xb5983d02	-1.1342638e-06
133	0x82190d5b	-1.1244498e-37
134	0x82162f75	-1.1033879e-37
135	0x821ef9bb	-1.1679676e-37
136	0x8214b512	-1.0925287e-37
137	0x821a0a03	-1.1317006e-37
138	0x00000000	0.0
139	0x021fff3e	1.1754726e-37
140	0x0216a60e	1.1067915e-37
141	0x0213bacb	1.0853461e-37
142	0x0212e91e	1.0793287e-37
143	0x021e40e8	1.1626634e-37
144	0x02116031	1.0680523e-37
145	0x00000000	0.0
146	0x821d7c05	-1.157013e-37
147	0xb6f29527	-7.2295256e-06
148	0xbb87af72	-0.0041407878
149	0xba49eb0b	-0.00077025656
150	0xbb31b4e5	-0.0027115878
151	0xbc989f07	-0.018630518
152	0x00000000	0.0
153	0xb6a18df2	-4.8146985e-06
154	0x021bcf7e	1.1447149e-37
155	0x021ee8d1	1.1674822e-37
156	0x021c8726	1.1499856e-37
157	0x02154b7b	1.0968453e-37
158	0x02165738	1.104529e-37
159	0x00000000	0.0
160	0x021297ae	1.0769916e-37
161	0x021e0b3c	1.1611231e-37
162	0x0215825f	1.0984206e-37
163	0x021c409d	1.1479613e-37
164	0x021750a5	1.1116872e-37
165	0x021beadd	1.1455004e-37
166	0x00000000	0.0
167	0x8214b198	-1.092429e-37
168	0xb2a76f7a	-1.9492052e-08
169	0xb7ddcd15	-2.6440752e-05
170	0x0218aa9e	1.1216161e-37
171	0xb870b14e	-5.7385587e-05
172	0xb74d4d62	-1.2236969e-05
173	0x00000000	0.0
174	0x32276f7a	9.746026e-09
175	0x0216c1d5	1.1075887e-37
176	0x02197695	1.1274696e-37
177	0x0216b3dd	1.1071878e-37
178	0x0217d503	1.1154859e-37
179	0x0210138e	1.0585061e-37
180	0x00000000	0.0
181	0x821d990e	-1.1578463e-37
182	0xb71381a0	-8.792063e-06
183	0xbba4ad6d	-0.005025557
184	0xba313b14	-0.00067608175
185	0xbb72f91c	-0.003707475
186	0xbcb99df5	-0.022658328
187	0x00000000	0.0
188	0xb6cc8d11	-6.096096e-06
189	0x82191f20	-1.1249597e-37
190	0x821be395	-1.1452914e-37
191	0x82140c18	-1.0876793e-37
192	0x821de10d	-1.1599125e-37
193	0x821e2493	-1.1618503e-37
194	0x00000000	0.0
195	0x82101009	-1.0584051e-37
196	0x23d3b4a4	2.295317e-17
197	0x2b3a9a6a	6.6294767e-13
198	0x021c3f6c	1.1479271e-37
199	0x2933e1d8	3.9941873e-14
200	0x2ad18628	3.7218948e-13
201	0x00000000	0.0
202	0xa353b4a4	-1.1476585e-17
203	0x021a3898	1.1330375e-37
204	0x0215f804	1.1017968e-37
205	0x021f630d	1.1709901e-37
206	0x021810fc	1.1172071e-37
207	0x0211e2ef	1.0718044e-37
208	0x00000000	0.0
209	0x821118da	-1.066005e-37
210	0x8215acf8	-1.0996431e-37
211	0x82114f49	-1.0675671e-37
212	0x8211a600	-1.0700557e-37
213	0x82130474	-1.0801132e-37
214	0x8216f2b1	-1.1089909e-37
215	0x00000000	0.0
216	0x821c77a2	-1.1495403e-37
217	0x021805aa	1.1168822e-37
218	0x021d0c5b	1.1538084e-37
219	0x021f9d4a	1.1726615e-37
220	0x021a3a23	1.1330818e-37
221	0x021fb040	1.1732056e-37
222	0x00000000	0.0
223	0x021eeb96	1.1675617e-37
224	0x0219981c	1.1284318e-37
225	0x021ae82e	1.1380765e-37
226	0x821cd7b7	-1.1522977e-37
227	0x021b53eb	1.1411685e-37
228	0x021ae3d0	1.1379512e-37
229	0x00000000	0.0
230	0x821081dd	-1.0616718e-37
231	0x82132982	-1.0811767e-37
232	0x82185009	-1.1190165e-37
233	0x0218a860	1.1215518e-37
234	0x82161fd0	-1.1029389e-37
235	0x82148b97	-1.0913383e-37
236	0x00000000	0.0
237	0x0219d6f9	1.1302359e-37
238	0xb18bdea3	-4.0707433e-09
239	0xb750ed5a	-1.2453029e-05
240	0x15a6e869	6.7413545e-26
241	0xb4ec8304	-4.4053752e-07
242	0xb69d3a53	-4.6857544e-06
243	0x00000000	0.0
244	0x310bdea3	2.0353716e-09
245	0x23d64e0f	2.3234986e-17
246	0x2b3d509e	6.725817e-13
247	0x2828dc6c	9.37367e-15
248	0x2937ee2e	4.084075e-14
249	0x2ae75500	4.1092824e-13
250	0x00000000	0.0
251	0xa35301f8	-1.143875e-17
252	0x02102d61	1.0592472e-37
253	0x021b7091	1.1419906e-37
254	0x0213dc74	1.0863121e-37
255	0x02121ab9	1.0734055e-37

exp_avg_sq f4 [96, 7]
0	0x304dbb16	7.484443e-10
1	0x39f11e5a	0.00045989716
2	0x389d5393	7.50191e-05
3	0x38faee2d	0.00011965293
4	0x3bd3eebc	0.0064676683
5	0x00000000	0.0
6	0x2f4db06c	1.8707319e-10
7	0x30ad7596	1.2620827e-09
8	0x3a21a6aa	0.00061664975
9	0x38fdb3b2	0.00012097451
10	0x39bd911d	0.00036157007
11	0x3c35f0de	0.0111047905
12	0x00000000	0.0
13	0x2fad5f85	3.1536387e-10
14	0x00000000	0.0
15	0x00000000	0.0
16	0x00000000	0.0
17	0x00000000	0.0
18	0x00000000	0.0
19	0x00000000	0.0
20	0x00000000	0.0
21	0x00000000	0.0
22	0x00000000	0.0
23	0x00000000	0.0
24	0x00000000	0.0
25	0x00000000	0.0
26	0x00000000	0.0
27	0x00000000	0.0
28	0x13edbabd	6.001135e-27
29	0x1e627b20	1.1989802e-20
30	0x1b09723a	1.1369283e-22
31	0x1aaf1913	7.2418813e-23
32	0x1f38e4b8	3.9152707e-20
33	0x00000000	0.0
34	0x12eda38a	1.4997118e-27
35	0x072fdea8	1.323097e-34
36	0x137225fe	3.0563426e-27
37	0x00000000	0.0
38	0x0db1ba73	1.0953353e-30
39	0x1123b271	1.2913419e-28
40	0x00000000	0.0
41	0x062fdea8	3.3077424e-35
42	0x00000000	0.0
43	0x00000000	0.0
44	0x00000000	0.0
45	0x00000000	0.0
46	0x00000000	0.0
47	0x00000000	0.0
48	0x00000000	0.0
49	0x2fe3c6b2	4.143224e-10
50	0x3978678a	0.00023689694
51	0x388ca86b	6.7070905e-05
52	0x398a1d37	0.00026343178
53	0x3b965960	0.004588291
54	0x00000000	0.0
55	0x2ee37e44	1.0345194e-10
56	0x00000000	0.0
57	0x00000000	0.0
58	0x00000000	0.0
59	0x00000000	0.0
60	0x00000000	0.0
61	0x00000000	0.0
62	0x00000000	0.0
63	0x1aba5b01	7.707482e-23
64	0x2a9792c3	2.6924825e-13
65	0x2a8da5d6	2.5161703e-13
66	0x2720efe6	2.233451e-15
67	0x2bcbf082	1.4490772e-12
68	0x00000000	0.0
69	0x19ba5db4	1.9269796e-23
70	0x0cb11102	2.7281404e-31
71	0x18814ac0	3.3421197e-24
72	0x00000000	0.0
73	0x137c3d8d	3.1837219e-27
74	0x165f49d9	1.8037099e-25
75	0x00000000	0.0
76	0x0bb11102	6.820351e-32
77	0x2eb0e648	8.0444595e-11
78	0x38d80109	0.000102998754
79	0x37e0e475	2.6809264e-05
80	0x38fd1789	0.00012068364
81	0x3aa4e660	0.0012580864
82	0x00000000	0.0
83	0x2db0b046	2.0087165e-11
84	0x28191544	8.497817e-15
85	0x31826d49	3.7959222e-09
86	0x2f9e56fe	2.8801844e-10
87	0x332a9175	3.9713502e-08
88	0x337d1cc1	5.8932304e-08
89	0x00000000	0.0
90	0x2719155d	2.1244596e-15
91	0x3056d4a6	7.815494e-10
92	0x3a163ec3	0.0005731398
93	0x39087a6b	0.00013015575
94	0x3a7e993d	0.00097121653
95	0x3c1cee95	0.009578367
96	0x00000000	0.0
97	0x2f569a8a	1.951809e-10
98	0x2a899bdc	2.4444238e-13
99	0x33fb1a42	1.16928746e-07
100	0x2990f5b6	6.437509e-14
101	0x310f572e	2.0858795e-09
102	0x32c13792	2.2493428e-08
103	0x00000000	0.0
104	0x29899bdc	6.1110595e-14
105	0x2c69594d	3.3160863e-12
106	0x3664bdc1	3.4085099e-06
107	0x35d33e07	1.5738777e-06
108	0x3785daaa	1.5956659e-05
109	0x38a982fe	8.082947e-05
110	0x00000000	0.0
111	0x2b697981	8.294685e-13
112	0x00000000	0.0
113	0x00000000	0.0
114	0x00000000	0.0
115	0x00000000	0.0
116	0x00000000	0.0
117	0x00000000	0.0
118	0x00000000	0.0
119	0x30de35f9	1.6167966e-09
120	0x3a48d01d	0.0007660406
121	0x38c9e9bd	9.627964e-05
122	0x3a47f8d8	0.0007628328
123	0x3c49b68a	0.012311587
124	0x00000000	0.0
125	0x2fde03bb	4.0384215e-10
126	0x31077ef8	1.971726e-09
127	0x3a913521	0.0011078456
128	0x398f2f34	0.00027310255
129	0x3a9a5e90	0.0011777449
130	0x3ca47e0c	0.020079635
131	0x00000000	0.0
132	0x300754e7	4.923337e-10
133	0x00000000	0.0
134	0x00000000	0.0
135	0x00000000	0.0
136	0x00000000	0.0
137	0x00000000	0.0
138	0x00000000	0.0
139	0x00000000	0.0
140	0x00000000	0.0
141	0x00000000	0.0
142	0x00000000	0.0
143	0x00000000	0.0
144	0x00000000	0.0
145	0x00000000	0.0
146	0x00000000	0.0
147	0x2fd64975	3.8978568e-10
148	0x395238b3	0.00020048283
149	0x3830762d	4.207173e-05
150	0x3912d41c	0.00014002662
151	0x3b709b45	0.0036713642
152	0x00000000	0.0
153	0x2ed624a0	9.738099e-11
154	0x00000000	0.0
155	0x00000000	0.0
156	0x00000000	0.0
157	0x00000000	0.0
158	0x00000000	0.0
159	0x00000000	0.0
160	0x00000000	0.0
161	0x26e802e3	1.6099016e-15
162	0x325f38d7	1.2993232e-08
163	0x00000000	0.0
164	0x24425a94	4.2143767e-17
165	0x30bf4202	1.391584e-09
166	0x00000000	0.0
167	0x25e802e3	4.024754e-16
168	0x27f161de	6.6997045e-15
169	0x311cdc77	2.2826308e-09
170	0x00000000	0.0
171	0x3279f758	1.4549947e-08
172	0x300d1942	5.1331395e-10
173	0x00000000	0.0
174	0x26f161de	1.6749261e-15
175	0x00000000	0.0
176	0x00000000	0.0
177	0x00000000	0.0
178	0x00000000	0.0
179	0x00000000	0.0
180	0x00000000	0.0
181	0x00000000	0.0
182	0x30c5fd76	1.4405674e-09
183	0x3a3a1bae	0.00070994615
184	0x39419a52	0.00018463403
185	0x3a05bfa5	0.00051021046
186	0x3c61168d	0.013738287
187	0x00000000	0.0
188	0x2fc5f2e6	3.600668e-10
189	0x00000000	0.0
190	0x00000000	0.0
191	0x00000000	0.0
192	0x00000000	0.0
193	0x00000000	0.0
194	0x00000000	0.0
195	0x00000000	0.0
196	0x2b726e97	8.6129145e-13
197	0x34dec039	4.1490583e-07
198	0x2d27a784	9.530047e-12
199	0x34562330	1.9943104e-07
200	0x33cb8ead	9.478877e-08
201	0x00000000	0.0
202	0x2a726e97	2.1532286e-13
203	0x07885902	2.051532e-34
204	0x13c6c578	5.0176946e-27
205	0x00000000	0.0
206	0x0ea1e24c	3.990748e-30
207	0x117f2830	2.0128337e-28
208	0x00000000	0.0
209	0x06885902	5.12883e-35
210	0x00000000	0.0
211	0x00000000	0.0
212	0x00000000	0.0
213	0x00000000	0.0
214	0x00000000	0.0
215	0x00000000	0.0
216	0x00000000	0.0
217	0x00000000	0.0
218	0x00000000	0.0
219	0x00000000	0.0
220	0x00000000	0.0
221	0x00000000	0.0
222	0x00000000	0.0
223	0x00000000	0.0
224	0x21cb575c	1.3778939e-18
225	0x2ff9d885	4.5446683e-10
226	0x00000000	0.0
227	0x2e96d164	6.8584055e-11
228	0x2fca5476	3.68036e-10
229	0x00000000	0.0
230	0x20cb575c	3.4447347e-19
231	0x0f7a0fe9	1.2329016e-29
232	0x1924dd77	8.523326e-24
233	0x00000000	0.0
234	0x1a94a121	6.147168e-23
235	0x17f78325	1.5995106e-24
236	0x00000000	0.0
237	0x0e7a0fe9	3.082254e-30
238	0x2ba5fee5	1.1794703e-12
239	0x363189fe	2.6455377e-06
240	0x30979a37	1.1030526e-09
241	0x36e4b857	6.8163895e-06
242	0x37bc2478	2.2428329e-05
243	0x00000000	0.0
244	0x2aa5ef9a	2.9476145e-13
245	0x283a0a42	1.03272984e-14
246	0x35fe03b1	1.8925549e-06
247	0x369f9009	4.755337e-06
248	0x349ad84a	2.8842106e-07
249	0x3824130b	3.9118382e-05
250	0x00000000	0.0
251	0x273a0a42	2.5818246e-15
252	0x00000000	0.0
253	0x00000000	0.0
254	0x00000000	0.0
255	0x00000000	0.0

exp_avg f4 [96]
0	0x3b8a1dd1	0.00421498
1	0xbbacf4ae	-0.0052781915
2	0x021cb0b0	1.1511777e-37
3	0x8217c485	-1.1150126e-37
4	0x021d2428	1.1544915e-37
5	0x0210a468	1.0626631e-37
6	0x0215bc26	1.1000787e-37
7	0xba146f99	-0.00056623813
8	0x0216fc9b	1.1092754e-37
9	0x02128eed	1.0767404e-37
10	0x02174eb2	1.1116312e-37
11	0x3a905e3b	0.0011014411
12	0xb77a7b3e	-1.4929856e-05
13	0x3bc717b8	0.0060758255
14	0x2b5d8e8c	7.8712796e-13
15	0x37c4ccba	2.3460354e-05
16	0x021cc6ba	1.1518102e-37
17	0xbad227a8	-0.0016033547
18	0xba9034d7	-0.0011002076
19	0x82178084	-1.113061e-37
20	0x021ede3e	1.1671787e-37
21	0xbb985dde	-0.0046498617
22	0x0213dd51	1.0863369e-37
23	0x0215264f	1.0957785e-37
24	0xb7cd4d62	-2.4473939e-05
25	0x021922de	1.1250671e-37
26	0xbbb989c3	-0.0056621744
27	0x821b89c5	-1.142714e-37
28	0x2b518628	7.4437895e-13
29	0x021b0f63	1.1392017e-37
30	0x8214763a	-1.0907252e-37
31	0x021311a7	1.080492e-37
32	0x02142aae	1.0885571e-37
33	0x821de2d8	-1.1599639e-37
34	0xb71d3a53	-9.371509e-06
35	0x2b572442	7.643366e-13
36	0x0210f893	1.0650786e-37
37	0x3b165b90	0.002294276
38	0x00000000	0.0
39	0xba9def10	-0.0012049396
40	0x021dd40f	1.1595396e-37
41	0x82161d13	-1.1028603e-37
42	0x0218de25	1.1230949e-37
43	0xb736e68b	-1.0901723e-05
44	0x8218c38b	-1.1223314e-37
45	0xbad677bb	-0.0016362587
46	0x00000000	0.0
47	0x021dcae7	1.1592768e-37
48	0x0211a587	1.0700422e-37
49	0x02115a4f	1.0678835e-37
50	0x021ecae5	1.1666235e-37
51	0x0217b772	1.1146374e-37
52	0x37d66982	2.5559919e-05
53	0x02193b40	1.1257669e-37
54	0xb86806d9	-5.5319488e-05
55	0x0217d83f	1.1155788e-37
56	0x0218b1ad	1.1218187e-37
57	0x021f0863	1.1683882e-37
58	0x0214cf2e	1.093278e-37
59	0x0219fd52	1.1313364e-37
60	0x02121d51	1.0734799e-37
61	0x021faac4	1.1730482e-37
62	0x34a2fb35	3.035763e-07
63	0xbb5e9e23	-0.0033968769
64	0x3b0e56bc	0.0021719178
65	0x821d0bf0	-1.1537964e-37
66	0x021af132	1.1383353e-37
67	0x021f4f20	1.1704183e-37
68	0x021116a7	1.0659418e-37
69	0x00000000	0.0
70	0x821adcef	-1.1377538e-37
71	0x021c7855	1.1495604e-37
72	0xb7d66c77	-2.5561296e-05
73	0x021bb7c4	1.144034e-37
74	0x02119269	1.0694935e-37
75	0x021311c8	1.0804957e-37
76	0x02107a3a	1.0614526e-37
77	0xb7958806	-1.7825525e-05
78	0x021f7671	1.1715466e-37
79	0xbb69172b	-0.0035566788
80	0x90fcc14e	-9.969431e-29
81	0xba6ffb90	-0.0009154612
82	0xb78681cc	-1.6034486e-05
83	0x021bdeb8	1.1451519e-37
84	0x021a44b3	1.1333849e-37
85	0x8216f860	-1.109154e-37
86	0xbb88d81e	-0.004176154
87	0x021228c2	1.0738083e-37
88	0x021db83c	1.1587411e-37
89	0x02116c70	1.0684038e-37
90	0x021bea78	1.1454891e-37
91	0x021b3ea3	1.1405577e-37
92	0xb89c6348	-7.457152e-05
93	0xb7c23824	-2.3152745e-05
94	0x845060aa	-2.4494668e-36
95	0x021b8fe6	1.1428898e-37

exp_avg_sq f4 [96]
0	0x39d581fa	0.00040723366
1	0x3a36e69a	0.00069771113
2	0x00000000	0.0
3	0x00000000	0.0
4	0x1d38e4b8	2.4470442e-21
5	0x1223b271	5.1653677e-28
6	0x00000000	0.0
7	0x3996c7f8	0.00028759218
8	0x00000000	0.0
9	0x2b38e089	6.5681537e-13
10	0x175f49d9	7.2148395e-25
11	0x38a627ae	7.922888e-05
12	0x31db1940	6.3766095e-09
13	0x3a1d76b9	0.0006006766
14	0x33c11668	8.9913385e-08
15	0x36a9ecf2	5.0641765e-06
16	0x00000000	0.0
17	0x3a4b6403	0.00077587384
18	0x3aa4d671	0.0012576116
19	0x00000000	0.0
20	0x00000000	0.0
21	0x3971774c	0.00023027993
22	0x00000000	0.0
23	0x31bf4202	5.566336e-09
24	0x310d1942	2.0532558e-09
25	0x00000000	0.0
26	0x3a62ce92	0.0008651997
27	0x00000000	0.0
28	0x34c0b53a	3.5894647e-07
29	0x127f2830	8.0513347e-28
30	0x00000000	0.0
31	0x00000000	0.0
32	0x30ca5476	1.472144e-09
33	0x18f78325	6.3980426e-24
34	0x35ceb19d	1.5399888e-06
35	0x370ea2a8	8.501731e-06
36	0x00000000	0.0
37	0x384f7268	4.9459195e-05
38	0x00000000	0.0
39	0x388228de	6.206495e-05
40	0x00000000	0.0
41	0x00000000	0.0
42	0x1814935b	1.9202947e-24
43	0x330a5e22	3.2216242e-08
44	0x00000000	0.0
45	0x371575a7	8.908485e-06
46	0x00000000	0.0
47	0x00000000	0.0
48	0x12ac7855	1.088439e-27
49	0x30fe2cae	1.8493631e-09
50	0x04aac73d	4.014978e-36
51	0x00000000	0.0
52	0x3462ed79	2.1134282e-07
53	0x00000000	0.0
54	0x366ef198	3.560539e-06
55	0x00000000	0.0
56	0x00000000	0.0
57	0x00000000	0.0
58	0x1a146dbf	3.0694335e-23
59	0x00000000	0.0
60	0x0f1f51ca	7.855057e-30
61	0x00000000	0.0
62	0x330a2fd8	3.2174142e-08
63	0x3990b3b8	0.0002759972
64	0x38f2cdf3	0.0001157782
65	0x00000000	0.0
66	0x00000000	0.0
67	0x00000000	0.0
68	0x0ceb636c	3.626732e-31
69	0x00000000	0.0
70	0x00000000	0.0
71	0x2914ff82	3.308422e-14
72	0x30c5aa15	1.4381977e-09
73	0x00000000	0.0
74	0x00000000	0.0
75	0x00000000	0.0
76	0x2afd5f62	4.5008013e-13
77	0x369471af	4.423978e-06
78	0x00000000	0.0
79	0x3939d350	0.00017721695
80	0x355ecddf	8.3001026e-07
81	0x389a417f	7.355492e-05
82	0x32ef38a5	2.784902e-08
83	0x00000000	0.0
84	0x00000000	0.0
85	0x00000000	0.0
86	0x39656d1f	0.00021879793
87	0x065bdd31	4.1351828e-35
88	0x00000000	0.0
89	0x00000000	0.0
90	0x00000000	0.0
91	0x00000000	0.0
92	0x38124e24	3.4881887e-05
93	0x365f1cfa	3.3246456e-06
94	0x301b7984	5.6561356e-10
95	0x00000000	0.0
